src/rl_robot/reinforcement/checkpoint/act.pth (torch, 675408 bytes, 8 tensors)

layer1.weight f4 [512, 6]
000000 8e 49 86 bf f8 83 02 c0 d2 62 82 3f a5 cd 3d be
       -1.0491197 -2.0393047 1.0186408 -0.18535478
000010 a5 f2 34 be b3 a7 21 bf 5e db ae be 89 c0 89 3f
       -0.17670687 -0.63146514 -0.3415174 1.0761882
000020 63 df 76 3f 9a 7b 3f 3e a3 a6 ae be 38 8a 25 3f
       0.9643461 0.18699494 -0.3411151 0.6466403
000030 d8 7c ad 3f 74 4a 01 bf 87 7c cb 3f 33 00 04 3e
       1.3553724 -0.5050423 1.5897378 0.12890701
000040 03 43 f6 3d 93 68 25 3f 86 6c 16 3f eb f0 a0 bf
       0.120245 0.6461269 0.58759344 -1.2573522
000050 89 47 0d bf 7a 68 0a be b2 3d 28 be bc 76 55 bd
       -0.5518728 -0.13516417 -0.16429785 -0.052115187
000060 e5 04 04 3e b0 8a 95 3f d2 d6 a0 3e 35 40 8a 3e
       0.12892492 1.1682949 0.31413895 0.2700211
000070 d6 97 f0 be 76 0a 07 3e af 56 5e c0 3f f4 eb be
       -0.46990842 0.13187584 -3.4740407 -0.46084782
000080 8a 25 20 c0 6f 7f 45 3d e1 5d 8f bb 23 23 0d be
       -2.5022912 0.048217233 -0.004375205 -0.13782935
000090 dc f0 4f bf cc 2c 75 c0 e1 7b b7 bf f1 eb aa be
       -0.812269 -3.8308592 -1.433468 -0.33383134
0000a0 1d 63 2d be 79 bb 6b be 9b 78 01 c0 27 9c 11 3e
       -0.1693234 -0.23020734 -2.0229862 0.14219724
0000b0 c4 36 bc bf 1f 37 dc 3e cb 9f a7 be 64 9a 3d bf
       -1.4704213 0.43010804 -0.327391 -0.74063706
0000c0 eb ec 7b be 95 ad 95 3f 63 35 fb 3f 71 7f 33 3e
       -0.24602096 1.1693598 1.9625667 0.17529084
0000d0 f2 d6 f2 bd ae 31 1e be 57 32 28 c0 5c 36 48 3f
       -0.11857404 -0.15448639 -2.6280725 0.78207946
0000e0 9b 7f d5 be be d4 6e be 5e 30 af be c1 97 8e be
       -0.41698918 -0.23323342 -0.3421659 -0.27850154
0000f0 c9 ce 1c bf 2c fe 8b 3f 68 a4 49 bf c0 cb ad 3e
       -0.6125303 1.0936942 -0.7876649 0.3394451
000100 88 38 21 bf 70 05 e8 3e bb 64 b2 bd b9 54 9f 3e
       -0.62976885 0.45316648 -0.08710619 0.31119326
000110 24 38 92 3e 26 80 30 be 14 70 cc be 48 1d fa 3e
       0.28558457 -0.17236385 -0.3992926 0.48850465
000120 b8 d0 8a 3e d4 c4 58 c0 e2 77 f4 3f d2 25 8e be
       0.27112365 -3.3870134 1.9099085 -0.2776323
000130 39 6c 27 be 8d e3 4a 3f 91 ab 4c 3e 0d 48 92 3c
       -0.16349877 0.79253465 0.19987322 0.017856622
000140 0b 84 a8 bd ed a4 59 3b 62 e8 0b be 7c e2 0a be
       -0.0822831 0.0033209876 -0.13662866 -0.1356296
000150 11 c4 63 3d 7e 41 fe be 51 d5 2b 3e 6d d5 a9 3d
       0.055606905 -0.49659342 0.16780593 0.08292661
000160 91 c7 ef bd dc 67 86 bd 01 33 a0 3e 3f 59 d3 3e
       -0.11707986 -0.06562778 0.31288913 0.41279027
000170 61 b3 a4 3e 68 27 33 be ce 79 76 be 6e 99 02 3e
       0.32168105 -0.17495501 -0.24069902 0.12753841
000180 39 53 9d 3e 87 ed 5f 3f 42 5f 13 be 51 2b 69 be
       0.30727556 0.8747181 -0.14391807 -0.2277043
000190 15 3b 8f be d3 88 34 be b2 c0 11 40 c7 c9 d5 bf
       -0.27974764 -0.1763032 2.2773862 -1.6702203
0001a0 11 63 11 40 ad 44 02 bd a3 ba 37 3e 8f 92 de bd
       2.2716715 -0.031803776 0.1794229 -0.108677976
0001b0 1b 6b 4d 3f fe 7f bc bf 37 55 37 3f 2a b8 66 3d
       0.80241555 -1.472656 0.716144 0.056327976
0001c0 b9 53 6d 3e 82 8d b5 3e c0 d0 95 be 68 94 6d c0
       0.23176469 0.35459524 -0.29260826 -3.712183
0001d0 05 d0 02 bf 9c e3 fb 3d 3c f6 df bd 26 7e b1 3e
       -0.5109866 0.122992724 -0.10935637 0.34666556
0001e0 23 71 a7 3f dc 7c 27 3f 92 47 8b 3f 54 e1 10 be
       1.3081402 0.65424895 1.0881217 -0.14148456
0001f0 30 94 0f be 16 c3 85 be 11 92 dc 3f 54 a8 c3 3e
       -0.14021373 -0.261254 1.7232076 0.38214362
000200 5a d5 44 be 3f a6 9c be b0 60 58 be 7b 0a 56 be
       -0.19222012 -0.30595586 -0.21130633 -0.20902435
000210 9b a8 b6 3f 87 8c a0 3e e2 bf 93 bf d2 38 26 bf
       1.4270204 0.31357214 -1.1542933 -0.6493045
000220 5c 64 af be d8 6d 0c bf 16 83 f0 3f 70 fa b8 bf
       -0.34256256 -0.5485511 1.8790004 -1.4451427
000230 8d 54 21 40 de 4a 34 be 7a f5 ca bc 2b 1e 0d bf
       2.5207856 -0.17606685 -0.024775255 -0.5512416
000240 3a 51 a6 3f 57 ee 3f 3f cd ba e0 3d b5 cb a7 bd
       1.2993538 0.7497305 0.109731294 -0.08193151
000250 c0 a7 e7 3c 77 6f 43 3e ab 99 57 3f 77 17 82 c0
       0.028278232 0.19085489 0.84218854 -4.0653644
000260 2e 80 6a 3d 40 9e 94 be 32 de b6 bd f7 e4 4c be
       0.057251148 -0.29026985 -0.08929099 -0.20009218
000270 89 4b a0 bf 01 61 6e 3f 7e 1f 7a 3f ca 91 27 be
       -1.2523052 0.93116766 0.97704303 -0.16364208
000280 aa f0 aa 3b ba b4 a1 3e d6 3a 34 be 41 48 73 c0
       0.0052166777 0.31583196 -0.17600569 -3.801285
000290 07 47 1e 40 4a 88 a8 3d 07 b0 62 bc 03 f8 32 3b
       2.4730852 0.0822912 -0.0138359135 0.002730847
0002a0 77 00 86 c0 13 8f de 3d 4b 69 55 3f 04 2f ae bb
       -4.1875567 0.10867133 0.8336379 -0.0053156633
0002b0 46 3a 91 be b8 ca 95 be c4 39 ee 3f 67 6b 95 3f
       -0.28364772 -0.29256225 1.8611379 1.1673402
0002c0 8c f1 7c 3f 9b ab 2a be 1b fa 94 3c c0 17 05 bf
       0.9880607 -0.16667025 0.018185666 -0.51989365
0002d0 d8 4d 87 3f 15 6a 2e 3f 8d 99 8a 3d 5c 75 09 bf
       1.0570631 0.6813062 0.06767569 -0.536947
0002e0 06 5a af be e6 93 6d be 73 1d ae bc c7 8f 89 be
       -0.3424837 -0.2320095 -0.021254277 -0.26867506
0002f0 75 5e da 3e 63 d1 02 3e fb d7 56 be 2b 28 8a 3e
       0.4265019 0.12775187 -0.20980828 0.2698377
000300 ca 7b 14 3f 6a 01 0b c0 99 11 f3 3f f9 89 d6 3d
       0.5800139 -2.1719613 1.8989745 0.10475535
000310 21 15 a5 be d6 40 e8 3e bd b6 36 bd 10 a7 ba 3e
       -0.32242683 0.45361966 -0.044607867 0.36455584
000320 4e c5 4d 40 06 e1 c3 bd 55 3b b2 be c5 d9 3a 3f
       3.2151675 -0.09564404 -0.34810892 0.7298854
000330 90 fa 68 bf 82 52 45 3f fc 3a 6b 40 6e b7 24 bd
       -0.9100733 0.7707902 3.6754751 -0.040213995
000340 ff 07 59 3d ae d7 1d bf 9a 6e 79 bf 61 e7 7e c0
       0.05298614 -0.61657226 -0.9743439 -3.9828722
000350 44 31 56 3f 1e fa 3f be 98 68 44 be b2 40 ce be
       0.83668923 -0.18747756 -0.19180524 -0.40283734
000360 2d cc 94 3e 77 42 82 3f 5f 5e de be 79 c7 83 3e
       0.29062024 1.0176533 -0.43431374 0.25738123
000370 18 be 22 be 1d a3 c0 3e 70 2b 17 3f 4e 42 9d be
       -0.15892828 0.37624446 0.59050655 -0.3071465
000380 82 48 27 be 5e 52 34 bd f1 09 a1 be 82 c8 c7 3e
       -0.16336253 -0.044023864 -0.31452897 0.39020163
000390 3c aa 37 c0 a1 05 81 be 19 70 a1 3e cf 4d 30 3d
       -2.8697653 -0.25199607 0.31530836 0.043042954
0003a0 f0 79 62 bd 4a 04 1c 3e 8e c3 18 bf e7 a6 4b 3f
       -0.05529207 0.15236011 -0.5967339 0.7955155
0003b0 a4 ea 24 be 19 94 53 be 18 f9 2b be 91 14 13 bf
       -0.16105133 -0.20661964 -0.1679424 -0.57453257
0003c0 53 ad 4c 3f e8 07 eb 3e b8 7f d8 3f 46 b3 95 be
       0.7995197 0.4590447 1.6913977 -0.29238337
0003d0 8a 66 72 be ae 88 96 3e 6b d0 f1 bf c0 9a 6b 3e
       -0.23671928 0.29401153 -1.8891729 0.23008251
0003e0 70 a4 38 40 c6 ff f8 bc 01 b4 09 be ab a6 1d be
       2.8850365 -0.0303954 -0.13447572 -0.1539561
0003f0 b0 e1 d9 3e 7b 1f 9b 3f d7 69 2e bf 81 30 76 3e
       0.42554998 1.2118982 -0.6813025 0.2404194

layer1.bias f4 [512]
000000 b1 a3 0a be 8a 69 f3 bd dc ca ca be 57 6e b3 3e
       -0.13539006 -0.11885364 -0.39607894 0.3504512
000010 01 5e 93 bd 81 ef 6c bc 74 3e e2 be 92 b3 21 be
       -0.07195664 -0.014461399 -0.44188273 -0.15791157
000020 eb 7f f9 be a0 d6 a3 be 32 f8 3c 3d 9d f9 73 be
       -0.48730406 -0.31999683 0.046135135 -0.23825689
000030 fb 3b 88 bd 6e 6a f6 bd 30 a3 c0 be fc 09 a7 be
       -0.06652065 -0.120320186 -0.37624502 -0.32624805
000040 95 b7 56 be 2b 1b d7 be 63 ce 37 be e4 e8 73 3e
       -0.20968468 -0.42012915 -0.17949824 0.2381931
000050 97 9b e0 3b 4f 4d 25 bf eb cd 45 be 2b 9c 4c 3d
       0.0068544853 -0.6457109 -0.19316833 0.04995362
000060 1d 39 95 be c6 f3 00 bf 01 c0 93 be 57 f3 c5 3d
       -0.29145136 -0.5037197 -0.28857425 0.09665554
000070 72 f0 e5 3d 3d 23 05 be 16 09 c5 be 7d 39 47 be
       0.11227502 -0.13001724 -0.38483495 -0.19455524
000080 e1 7f a9 3e db 52 37 be 75 cd 61 bb ac cf 3a be
       0.33105376 -0.179027 -0.0034454737 -0.18243283
000090 8a f0 0d bf 67 7e 1f be 35 a4 ce bd 1a 49 fa 3d
       -0.5544516 -0.15575562 -0.10089914 0.12220974
0000a0 10 0b fc be 28 db 72 3e 68 7a f9 bd b8 8b 04 3e
       -0.4922719 0.23716414 -0.1218155 0.12943923
0000b0 5c 83 31 3d 79 18 b4 be aa e8 ad be 3a ad be be
       0.043338165 -0.3517492 -0.3396657 -0.37241536
0000c0 0d 6b e5 be c6 f7 5d bd 08 97 69 3c 43 61 5b be
       -0.44808236 -0.054191373 0.0142572 -0.21423821
0000d0 47 08 b8 3e 94 fc 02 bf 53 80 33 be 9e fc 45 bd
       0.35943815 -0.51166654 -0.1752942 -0.048336618
0000e0 92 4a 44 be 26 03 f8 3e 5c e8 63 be 42 e3 cd be
       -0.19169071 0.48439902 -0.22256607 -0.40212446
0000f0 ae a8 f9 be fa e7 b1 be 66 2b ab 3d d4 8e 26 3b
       -0.48761505 -0.34747297 0.08357887 0.0025414722
000100 80 30 91 be f4 7e 4c 3e 6d 61 12 3e 04 23 06 ba
       -0.28357315 0.19970304 0.14294977 -0.0005116912
000110 cd 3c a9 3e 46 c5 6b be 5f 14 4d be 19 1b 66 3d
       0.330542 -0.23024473 -0.20027302 0.056178186
000120 cc 6d 85 bd 3d 58 7e bc 28 4b 00 3f e1 8e ef be
       -0.06515083 -0.015523967 0.5011468 -0.46788695
000130 0c d9 8b be 07 9f 94 be fa 63 c0 be fb cd 9f be
       -0.2731403 -0.29027578 -0.37576276 -0.31211838
000140 ca 1e 09 3e 05 54 a1 bd de 8a 9c 3e 1e 95 b2 be
       0.13390651 -0.078773536 0.30574697 -0.34879392
000150 c6 4f 32 bd 28 d7 ac be 85 1d 59 be fd 98 11 3d
       -0.04353311 -0.337579 -0.21202667 0.03554629
000160 df 81 48 be ac b1 0d bf f9 d1 b1 be 92 06 5a be
       -0.19580792 -0.5534923 -0.3473051 -0.21291569
000170 45 e0 46 be 84 27 4a be ba ce 04 bf e3 6c 9c bd
       -0.1942149 -0.19741637 -0.5187794 -0.07637956
000180 6b f4 c4 be 2b 79 05 be 5c d8 99 be 16 bb 98 be
       -0.38467726 -0.13034503 -0.30047882 -0.29830235
000190 fe 74 86 be f5 9d 57 3e 3d 5e 5d bd 13 3c 17 be
       -0.26261133 0.2105635 -0.05404495 -0.1476901
0001a0 15 10 9b 3c af 14 03 bf 09 9a cf 3e 34 ba db be
       0.018928567 -0.51203436 0.40547207 -0.429155
0001b0 fc cd 89 3e 7d c9 e0 be 27 36 d7 bd a6 a4 bf 3b
       0.26914966 -0.43903723 -0.105083756 0.005848485
0001c0 37 78 d9 be fa d8 7d be 67 c5 ad be 78 41 41 be
       -0.4247453 -0.24789801 -0.3393967 -0.1887263
0001d0 79 0f ca 3d ec 9d 01 3f 54 90 af be 58 0d ac 3d
       0.098662324 0.50631595 -0.342898 0.084009826
0001e0 b2 0e cc bc c8 aa 01 bf 1e fb 02 bf 2e ac 3c 3d
       -0.024909351 -0.50651217 -0.51164424 0.04606264
0001f0 33 a9 3d be 25 a9 57 be cc 36 a1 be 6c 8b d8 bd
       -0.18521576 -0.21060617 -0.3148712 -0.105734676
000200 b6 0c 77 be 70 57 1b be 9e 6a cf bd 11 5d d1 bd
       -0.24125943 -0.15170074 -0.101277575 -0.10222829
000210 75 85 a2 be 00 7e 6d 3e da 7b d5 be 0f 22 84 be
       -0.31742445 0.23192596 -0.41696054 -0.25807235
000220 d1 d3 b7 3d f7 22 07 be 25 d8 c3 be be f2 ea bd
       0.08975948 -0.13196932 -0.38250843 -0.11472081
000230 7e 76 a2 be 88 49 c3 be 5a ca 17 bf 81 6f 40 be
       -0.31731027 -0.38142037 -0.5929314 -0.18792535
000240 1e 1f 06 bf 2f ad a7 bd 2e f2 36 ba 19 52 93 be
       -0.5239123 -0.08187329 -0.00069788366 -0.28773573
000250 6e 57 e4 bd 83 9e 5b be a6 d8 ba 3e 31 7b fe 3d
       -0.111494884 -0.21447186 0.36493415 0.12425841
000260 04 24 73 be b1 57 9f be 1c 1a 86 be e5 c5 5b be
       -0.23744208 -0.3112159 -0.26191795 -0.2146221
000270 d3 f6 30 3e 1f 06 0c be 03 22 92 3e ab aa 67 3e
       0.17281656 -0.1367421 0.28541574 0.22623698
000280 63 94 a7 be 3d 8b 9e 3e c0 56 df 3b 98 24 47 be
       -0.32730398 0.30965605 0.0068157613 -0.19447553
000290 a8 a6 45 be c7 48 70 be 17 66 42 be 13 b4 27 be
       -0.19301856 -0.23465262 -0.18984257 -0.16377287
0002a0 eb 8d b3 bc 65 56 45 3d 04 be 7b be ad 0b 0e bd
       -0.021918258 0.048178095 -0.24584204 -0.034679104
0002b0 28 a8 a6 be 6b e8 96 bd 4d 45 07 bf a7 8f ea 3d
       -0.32550168 -0.07368549 -0.5284012 0.11453181
0002c0 33 73 23 be 60 14 59 be bf c2 97 bd c3 e4 98 3b
       -0.15961914 -0.21199179 -0.07410192 0.0046659424
0002d0 59 0a 88 bd 95 6f 20 be 53 33 21 3c 26 31 b8 3b
       -0.06642599 -0.15667565 0.009838897 0.0056210933
0002e0 34 53 6b be 5b 30 59 bc 0d d9 01 bf 8a 5c 4a be
       -0.22980958 -0.013256158 -0.5072182 -0.19761863
0002f0 c3 2b f4 be d0 7a 1d bd 51 8d b9 be 1e c5 d9 3c
       -0.47689638 -0.0384472 -0.36240628 0.02658325
000300 60 d2 14 3e 5f 31 42 3d 50 c1 47 3e 15 6c f4 be
       0.14533377 0.047410365 0.19507337 -0.4773871
000310 73 f9 07 bf 7e 1c a0 bd aa f8 af be ad 2e fd bd
       -0.53115004 -0.078179345 -0.34369403 -0.12362418
000320 62 7c 20 bf 15 43 c0 3c 87 1f ae be 6f d9 e8 be
       -0.62689793 0.023469487 -0.34008428 -0.4547839
000330 5c ac ca 3c c2 27 65 be eb c6 e8 bd eb 6f 7c 3d
       0.02474039 -0.22378448 -0.113660656 0.06163017
000340 cd ae 02 3f 03 25 39 be 93 84 04 3e 22 03 9a be
       0.51047975 -0.18080525 0.12941198 -0.30080515
000350 df db 8f be d7 d2 e8 be 6a a7 42 be 59 97 53 3e
       -0.28097436 -0.45473358 -0.19009176 0.20663203
000360 48 27 a3 be aa 29 01 bf 63 63 c3 be 18 2d 19 bf
       -0.31865907 -0.504542 -0.38161764 -0.5983443
000370 dc 8e 4d 3d 2d 7c ca be 08 61 e4 be cc 7a 31 be
       0.05018507 -0.39547864 -0.4460528 -0.17332
000380 d0 2b 03 bf 45 da 08 bf fb eb f1 be d4 41 f0 bc
       -0.5123873 -0.5345805 -0.4725035 -0.029328264
000390 8c ea c0 be 26 50 db bd 81 a8 d5 3e 5f c5 f5 be
       -0.37678945 -0.107086465 0.4173012 -0.48002145
0003a0 13 91 30 bf f1 0e 8c bd 8d 47 38 bb 3a 36 0d bf
       -0.68971366 -0.06838787 -0.002811882 -0.5516087
0003b0 98 59 ac 3e 16 12 a2 3d 04 c5 99 be 79 f3 98 be
       0.33662105 0.07913606 -0.30033123 -0.29873255
0003c0 ea e0 1b 3e be 55 9f be 7b d1 56 bc ba 5a 2e be
       0.15222517 -0.31120104 -0.0131114675 -0.17026797
0003d0 68 e6 c3 3d 2f e8 8f be d3 7c be be ff e6 8f 3e
       0.09565431 -0.2810683 -0.37204608 0.28105924
0003e0 bc 90 33 bf ca 24 bd be 2d f7 b5 3e d3 19 2c 3e
       -0.7014272 -0.3694213 0.35540143 0.16806726
0003f0 85 2e db be 5e f7 1b bf 65 fd 13 3d 4c 6c a2 bd
       -0.4280893 -0.6092433 0.036130328 -0.07930812

layer2.weight f4 [256, 512]
000000 d9 10 45 3c ec 22 87 bc 8d 8d 57 bc e0 c4 7d 3c
       0.012027943 -0.016496144 -0.013156307 0.015488833
000010 fd 8c 06 bd 08 cf a6 bc 5d 26 ae 3c 06 da f3 bc
       -0.0328493 -0.020362392 0.021258527 -0.029767048
000020 92 38 ea 3c 17 b4 a3 3b 86 dd 58 bc d8 e1 ff 3b
       0.028591428 0.0049958336 -0.013236409 0.007808905
000030 18 f1 fd 3c 14 18 d7 3c ba ca ec bb aa 35 1f 3b
       0.030998752 0.026256599 -0.0072263153 0.002429346
000040 60 53 7e bc 48 5d 0a 3a e9 be 0a bd 33 57 9f bc
       -0.015522808 0.0005278182 -0.033873472 -0.01945076
000050 96 99 82 bc 28 44 fc bc f5 76 92 bc 44 a2 45 bb
       -0.015942376 -0.030794218 -0.017878989 -0.0030156532
000060 44 78 25 bd 78 0c ac 3b 0d 74 45 bd 25 70 21 bc
       -0.040397897 0.00525051 -0.048206378 -0.0098533975
000070 eb e5 c9 bc eb 04 28 bd 11 68 39 bc 15 f9 91 3c
       -0.024645766 -0.041020315 -0.011316315 0.017818967
000080 84 02 f4 bc 30 dd ce bc 86 79 fc bc dd 2c 1d bd
       -0.029786356 -0.025251955 -0.030819666 -0.038372863
000090 c0 4a 49 b9 de 7a fa 3c e0 81 f0 bc 3e 4a 32 3c
       -0.000191967 0.030576166 -0.029358804 0.0108819585
0000a0 55 92 db 3b e7 2f 69 bd 5e 7d 35 bd ff d7 ac 3c
       0.0067007937 -0.05693045 -0.044309013 0.021099089
0000b0 a8 0d 9f 3c 16 87 75 bc ee 7d 0d bc 3b 5b af 3c
       0.019415691 -0.01498582 -0.008635981 0.021405807
0000c0 29 35 04 bc e1 a5 88 3c 52 2e 83 3c 06 75 d6 3c
       -0.008069315 0.01668066 0.016013298 0.026178848
0000d0 e3 c9 03 3c ba 92 b5 bc d6 22 a6 bb ff 57 d7 bc
       0.008043739 -0.022164691 -0.0050700707 -0.026287077
0000e0 16 13 8f 3c da ae ff 3b 59 5a 6b bb cf ab cf 3c
       0.017465156 0.0078028264 -0.0035912006 0.02535048
0000f0 bb 0e ad 3c 76 93 a3 3b 10 68 0f 3d 19 ef 33 3c
       0.021125188 0.004991944 0.03501135 0.010982298
000100 96 24 0b bd b7 92 6a 3c 84 5b a5 bc 3c 2b 47 bd
       -0.033970438 0.014317206 -0.02018524 -0.048625216
000110 52 e8 a3 ba 04 01 83 bb 2d 53 dd bc 02 04 7a bc
       -0.001250515 -0.003997924 -0.0270172 -0.015259745
000120 45 2e 24 bc 6a fa 4b bd a8 62 00 bc 70 f6 ba 3c
       -0.010020797 -0.04979936 -0.0078360215 0.022822589
000130 48 bb e3 3c ff 98 d8 bc fe 0a b9 bb 23 d3 3e 3c
       0.027799264 -0.026440142 -0.0056470623 0.011647019
000140 bc 57 41 bc ae 18 c7 bb 6c 40 67 bc 8c 4c 05 3d
       -0.011800703 -0.00607594 -0.01411448 0.032543704
000150 55 df d5 3c da 64 65 bd c1 ba cc 3c 25 11 dc 3b
       0.02610747 -0.056004383 0.024991395 0.006715911
000160 54 b3 52 bc de 8b ae bc b9 eb 5e 3c 88 c4 d3 bc
       -0.012860138 -0.021306928 0.013606005 -0.02585055
000170 39 c0 89 bc 3d 49 5b bc ad 33 d4 3c 1a f3 78 b9
       -0.016815292 -0.013384161 0.025903547 -0.00023741685
000180 83 30 b5 bc b7 4a 53 3c 2a 19 dd bc 96 00 0a bc
       -0.022117859 0.012896231 -0.026989538 -0.008422991
000190 40 97 1c 38 e1 31 0a bc 4c a2 c7 bc 95 91 ba bc
       3.733416e-05 -0.008434744 -0.024369381 -0.022774497
0001a0 ab 88 65 3c b1 48 ea bc 24 9f 07 3d 8e 98 64 bc
       0.014009635 -0.028599115 0.033110753 -0.0139523875
0001b0 70 25 f0 3b 47 9c 14 3c 37 6d 17 bd 8c c6 d3 3c
       0.0073286816 0.009070463 -0.03696939 0.02585151
0001c0 78 66 33 bd 2a bd 75 bc e0 18 09 bd e2 35 b6 bb
       -0.043798894 -0.0149987135 -0.03347099 -0.0055606226
0001d0 ec bb c9 bc 30 7e 09 3a d5 c3 ae bb d0 e8 7b 3c
       -0.024625741 0.00052449387 -0.0053334036 0.015375331
0001e0 d5 04 1c bd 78 a0 65 3c 94 6c f1 3b a8 52 19 bd
       -0.038090546 0.0140153095 0.00736768 -0.037432343
0001f0 c3 e9 0c 3c 57 21 98 3c 58 cf 25 3b 41 bf 12 bb
       0.008600655 0.018570585 0.0025300588 -0.0022391828
000200 b1 36 ef bb 26 24 56 bc b4 ce 3d bd 67 60 4c bb
       -0.007300221 -0.013070142 -0.046339706 -0.003118539
000210 78 65 0e bd 9b 7f 47 bc 9b 09 32 bd 54 02 10 3d
       -0.034764737 -0.01217642 -0.04346619 0.03515847
000220 2c 24 e9 3c 97 34 8f 3a 02 76 e0 bc 78 ae 87 3b
       0.02845963 0.0010925707 -0.02740002 0.0041406713
000230 74 99 d0 bc c3 1e ef bc 01 91 b9 3b fa ad ca 3c
       -0.025463797 -0.029189473 0.0056630378 0.024741162
000240 96 18 23 bd 0f c1 aa 3b ea 47 96 bc 9e ef f9 3a
       -0.03981837 0.0052110027 -0.018344838 0.0019068604
000250 09 fe 2b bd 8d ff dd bc 23 bb 90 bc f4 f7 a6 bb
       -0.041990314 -0.027099395 -0.017667359 -0.0050954763
000260 12 fd 55 3b 82 ed 14 bd 2d 29 b1 bc 80 0d 54 3c
       0.0032652062 -0.036359318 -0.02162608 0.012942672
000270 e0 b6 80 3c c0 cd 6d bc 2a df b3 bc 43 94 4f bc
       0.015712202 -0.014514387 -0.021956999 -0.012669626
000280 37 16 4b 3b c1 f4 24 bd fa 89 c3 3b dd f7 22 3c
       0.0030988583 -0.040272478 0.005967376 0.0099467905
000290 bc c4 ca bc 47 14 93 bc bc ca d6 3c b8 14 78 bc
       -0.024752013 -0.017954005 0.026219718 -0.0151416585
0002a0 e6 35 bb 3c de 01 75 bc f2 4a 33 bc f9 28 ef 3b
       0.02285285 -0.014954058 -0.010943161 0.0072985855
0002b0 a2 b4 05 3d 38 d2 e1 b9 cb 0e 8c bc ee c3 db b8
       0.032642968 -0.0004307197 -0.017096898 -0.000104792285
0002c0 6e 95 49 3b bc 86 01 bc cc 0d 1c 3c 3d 88 e3 bb
       0.0030759233 -0.007905658 0.009524774 -0.006943731
0002d0 2c 29 4d bc 7e 52 f0 3c 9c 20 dd 3c da bf c0 bb
       -0.012522023 0.02933621 0.026993088 -0.0058822455
0002e0 5e 63 7b bc 15 8f 12 bd da 7f f9 3b 37 67 ef 3c
       -0.015343515 -0.035780985 0.007614118 0.029224021
0002f0 03 09 94 bc 3e 39 f3 3c 85 ab be 3c 63 e0 01 bc
       -0.018070703 0.029690381 0.023275146 -0.007927033
000300 54 6f 4a bc 7c 6b 8d bc d3 99 dc 3b ad 26 6f bd
       -0.012355644 -0.017263167 0.0067322045 -0.058386493
000310 0a 30 96 bc dc ba e2 3b 8c 09 a8 3c 69 d9 89 3c
       -0.018333454 0.006919248 0.020512365 0.016827302
000320 e3 50 8b bc 6b 8a 2d bd 07 10 ae 3c 0c 5e be bb
       -0.017006343 -0.042368334 0.021247877 -0.005809551
000330 ec 16 03 3c 8d f2 6f bc b3 77 41 bc 94 d3 00 3d
       0.0080010705 -0.014645231 -0.011808324 0.031451777
000340 8b c8 01 bd f3 75 d7 3c 39 7d 05 3d 49 c9 a1 3c
       -0.031685393 0.02630136 0.032590125 0.0197493
000350 6c 3f 78 3c 7a 59 96 bc c6 ce e5 bc 22 c5 68 bd
       0.01515184 -0.018353213 -0.028052699 -0.056828626
000360 ea af 76 3c fe 61 17 3c 66 b1 ab 3a f8 24 02 bc
       0.01505659 0.009239672 0.0013099134 -0.007943384
000370 94 54 f9 3c ef 9d 08 bc 57 b1 0d bd 42 2b 01 bd
       0.030435838 -0.008338436 -0.034592953 -0.031535394
000380 4b c9 ce 3b ca cb 52 3b e7 57 1e 3b d3 17 c2 3c
       0.006310617 0.0032164925 0.002416128 0.023693
000390 8e 2e 27 bc 1c 09 86 bc 26 a4 68 bd 9a 80 c0 bc
       -0.010203971 -0.016361766 -0.05679717 -0.023498822
0003a0 e9 d6 df 3c a5 f4 2c bd 63 4b 37 3c 65 88 6a 3b
       0.027324157 -0.0422255 0.011187407 0.0035786864
0003b0 22 2b 1c bd 8f 6f b5 bc 49 4e be bc 31 11 0d 3a
       -0.038127072 -0.022147922 -0.023230689 0.0005381285
0003c0 d2 4f fa 3c 44 9e b8 ba 38 4f 83 bb 8a 22 3d 3b
       0.03055564 -0.0014085253 -0.0040072463 0.0028859698
0003d0 ca b0 f0 bc 66 8d 06 bd f6 cd fb bc 0e 45 98 3c
       -0.029381175 -0.03284969 -0.030737858 0.018587615
0003e0 de e9 81 bb d6 58 15 bc f0 84 05 3d 30 3e 3f bc
       -0.0039646467 -0.009115418 0.032597482 -0.0116725415
0003f0 57 4e ec 3c ff 17 23 bc 3c a3 8a 3c 9b a8 5b bc
       0.02884595 -0.009954452 0.01692354 -0.013406898

layer2.bias f4 [256]
000000 74 77 93 3b 70 f2 38 bd 88 65 53 bd 1e f7 9f bc
       0.004500324 -0.04515308 -0.0516105 -0.019527014
000010 a8 02 20 b9 a3 e6 e6 bc b2 dd e7 bb f5 f7 ef 3b
       -0.00015259779 -0.028186148 -0.0070759887 0.00732326
000020 3c 28 86 bd 3a 1b 9c bb 34 a4 77 3b 50 95 2a 3c
       -0.06550643 -0.004763988 0.0037787082 0.010411575
000030 0d 88 85 ba 84 28 50 be ac 14 03 bd b8 a7 44 bd
       -0.0010187641 -0.20327955 -0.032002136 -0.04801151
000040 99 ae 0b bd e0 d2 ca bc 4b 6d 27 bc 30 cc ab bc
       -0.034102056 -0.024758756 -0.010218929 -0.020971388
000050 c0 91 f6 bc 32 f4 89 38 93 d8 23 bd a8 89 95 be
       -0.030098796 6.578154e-05 -0.040001463 -0.29206586
000060 16 64 3c bd ed e2 27 bd 38 cc 93 3c 84 c2 39 bd
       -0.045993887 -0.040987898 0.018041715 -0.04535152
000070 aa 72 08 bc 51 cf b7 bd e7 ce 0f bd 68 af b7 bc
       -0.008328119 -0.08975089 -0.035109427 -0.022422507
000080 d4 44 92 bb 45 9d c8 3a b5 4b 6c 3e de 80 94 bb
       -0.0044637714 0.0015305659 0.23075755 -0.0045319637
000090 1c 8a 69 3c 02 4b f7 bd 1c dd 11 3b 97 67 35 bd
       0.014254119 -0.120748535 0.0022257036 -0.044288244
0000a0 e8 e4 5d bd 13 5d 1e bb 33 d2 0e be 7e f1 5d 3b
       -0.05417338 -0.0024164363 -0.13947372 0.0033865864
0000b0 8c 3f c1 bc 45 af a1 bc 3c 4a 2b 3c 60 4a 1f 3d
       -0.023589872 -0.019736895 0.010454711 0.03888929
0000c0 55 a4 b1 bc e6 fb 7e bd 6a 36 01 be 8d 63 3e be
       -0.021684805 -0.062251948 -0.12618414 -0.18592663
0000d0 41 65 24 3c c8 a9 7c bd 86 f1 cc bc c1 47 ef bb
       0.010033906 -0.061685354 -0.025017511 -0.007302255
0000e0 37 a3 d3 3b d8 c2 24 bd ee 64 7a bd 95 a2 6b bd
       0.0064586657 -0.04022488 -0.06113141 -0.057528097
0000f0 18 5d 7a bc f1 e4 a7 bc f3 9e df bc ec c1 6e bd
       -0.015280984 -0.02049491 -0.027297473 -0.058290407
000100 c0 b7 3d be 27 ba a7 be 9c 4e 7b 3d 99 ad 85 bd
       -0.18527126 -0.3275921 0.061354265 -0.06527252
000110 33 3f 80 bc 1a 5c 77 3b a6 45 8d 3c 28 0b 8b bb
       -0.015655136 0.0037744106 0.017245125 -0.0042432733
000120 fc 74 c8 bc dd 00 c5 3e cb 5c b9 3b 74 03 0d bc
       -0.024469845 0.3847722 0.0056568137 -0.00860678
000130 4f 49 c2 be f5 a9 b7 3e 28 0c a6 bd 65 57 cf bc
       -0.37946555 0.35871854 -0.08107787 -0.025310228
000140 01 86 6d bc 9e 3f 22 be 66 1b c8 bc 3c 3f c3 bc
       -0.014497281 -0.1584458 -0.024427127 -0.023833863
000150 7b fd 95 3d 1a 23 29 bd 89 fd 83 be 8c db ef bd
       0.07323738 -0.04129324 -0.2577937 -0.11711797
000160 51 39 88 bc e4 d8 bb bc 71 51 2a bd b9 be 9d bc
       -0.016628893 -0.02293057 -0.041581575 -0.019255983
000170 66 39 4b 3c 97 68 ce bc ae e0 fa bc 9e d5 36 bf
       0.012403822 -0.025196357 -0.030624714 -0.71419704
000180 59 37 31 bd eb ec 32 be 21 ac 93 3b e6 cb 64 bd
       -0.043265674 -0.1747319 0.0045066033 -0.055858515
000190 00 2c c0 3e aa 0a 0d 3c fe a2 03 3c de 85 72 bc
       0.3753357 0.0086085 0.008034466 -0.014802424
0001a0 ab 0c 86 bc da b5 d7 bc 4a da 94 3d c0 51 6e bc
       -0.016363462 -0.02633183 0.07268198 -0.014545858
0001b0 cb f4 21 bd ab 56 69 3d 2c eb 06 be 4f cb a0 39
       -0.039540093 0.05696742 -0.13175648 0.00030669055
0001c0 e2 d6 3c bd 35 71 65 bd e4 5b 92 bc a5 44 d8 bc
       -0.046103366 -0.056016166 -0.017866082 -0.02639992
0001d0 a6 f9 71 3c e8 2f 15 be 63 37 ec be 99 c6 fa 3d
       0.0147689935 -0.14569056 -0.46136007 0.12244911
0001e0 9c 22 a4 bc 99 ba 26 bd 50 6d 48 3e 41 c2 e4 bc
       -0.020036034 -0.040705297 0.1957295 -0.027924659
0001f0 fd 8f 63 3e 8b c1 0d 3b 71 6b 12 3e c7 0f 40 3e
       0.22222896 0.0021630253 0.14298798 0.18756019
000200 51 6d 5e bc a6 1c 2d bd ec 3d fe bc 8c 92 f0 bc
       -0.013575868 -0.04226365 -0.031035386 -0.029366754
000210 b2 5a 31 bd af 15 cd bc 52 5c 52 bc d4 0b 84 bd
       -0.043299384 -0.025034754 -0.012839394 -0.064475685
000220 e5 8a b0 bd 48 5d 02 bd fe 52 1b bd 48 66 67 bd
       -0.08620242 -0.03182724 -0.037920944 -0.056494027
000230 39 52 45 bd 4e 5e af ba 59 b1 44 bd 7b 74 26 3e
       -0.048174117 -0.0013379545 -0.048020694 0.16255371
000240 a5 fb 68 be c0 9b 8f 3e 9c a3 48 3d d6 78 31 bd
       -0.22752245 0.28048515 0.048984155 -0.04332813
000250 86 63 93 bc 11 43 d2 bd 46 27 2a bd 7c 74 0c bd
       -0.017991792 -0.10266698 -0.04154136 -0.034290776
000260 a5 31 54 bd 6d 84 37 bd 3c ed 17 3e 06 cc c7 3e
       -0.051805157 -0.044804025 0.14836591 0.39022845
000270 e6 7f f6 3b 84 79 6c bd 9a 03 8a 3e 84 c0 27 bd
       0.007522571 -0.057733074 0.26955873 -0.04095508
000280 c2 72 ab 3d 75 8d 3d 3c d5 66 67 bd 04 9b a1 bc
       0.08371498 0.0115693705 -0.056494553 -0.019727238
000290 54 9e 25 bd 18 8b 74 bc 3f bf 37 bd e2 a2 72 bd
       -0.040434197 -0.014925741 -0.04486012 -0.05923737
0002a0 08 4a 7b 3c 4a 84 4b bd 02 15 77 be 73 2f e1 be
       0.015337475 -0.049686708 -0.24129108 -0.43981513
0002b0 d3 19 82 bc 92 9c 3b bd 2f 49 de bd aa 34 2a 3c
       -0.015881455 -0.045803614 -0.108538024 0.010388533
0002c0 5a 6f 8d 3e c0 cd 09 bd 78 ed b7 bc c1 72 bb bd
       0.27624017 -0.033643484 -0.022452101 -0.09152747
0002d0 bd ca 1c 3e 9a f5 70 3c 09 92 62 3b ed 31 7c 3d
       0.15311714 0.0147069935 0.0034571907 0.06157105
0002e0 60 74 24 bc 5a 86 a0 bc ee 30 5b bd 21 82 3d bd
       -0.010037512 -0.019595314 -0.05351346 -0.04626668
0002f0 1a a8 06 bd a5 8b 6e bd 45 0b 23 bd 9c 23 50 bc
       -0.032875158 -0.058238644 -0.03980567 -0.012703802
000300 0c 6d 60 bd 2e 44 1b bd 42 dc 5b bc 04 c0 49 bd
       -0.054791495 -0.037906818 -0.013419213 -0.049255386
000310 bf ad 2b bd b8 d1 8f bd b2 07 5b bd 4f 0a 29 bd
       -0.041913744 -0.070224226 -0.053474136 -0.041269597
000320 56 ef ae bb f5 ca 9a bc 30 eb 8a bc 2d f4 da bc
       -0.0053385897 -0.018895606 -0.01695785 -0.02672776
000330 dc b7 02 bb 2f a1 e7 bc ef 51 0c bc 25 8e 05 3c
       -0.0019946015 -0.0282751 -0.008564456 0.008151566
000340 3b 6a 0d bd 8b fd bc be c0 c0 3c 3c e6 9e 1d bd
       -0.034525137 -0.36912188 0.011520565 -0.038481615
000350 16 4d 16 be 5e 5e c1 bc 7f 4e 58 bd cb 2a c3 bb
       -0.14677843 -0.023604568 -0.052809235 -0.005956029
000360 50 83 7d 3a 45 fc 11 bd 3a 0c 33 bd 82 67 34 3c
       0.0009670751 -0.035640974 -0.043712832 0.011011006
000370 ad d6 24 bd a6 9b 96 be ab 78 36 bd ee 11 2a bd
       -0.040243793 -0.29415625 -0.04454867 -0.041521005
000380 52 21 aa 3b 08 00 5b bd 2f d2 18 bd 90 7e 4a bd
       0.0051919604 -0.053466827 -0.03730982 -0.049437106
000390 1d ae e1 bc 9a d2 1b bc 55 bc 2e bd 04 f7 23 bd
       -0.027548844 -0.009510661 -0.042660076 -0.040030494
0003a0 e6 60 5a bd 84 7e 7c bd 4b 5e cb 3b 13 60 53 bd
       -0.053315066 -0.061644092 0.006206309 -0.051605295
0003b0 44 34 1d bd e0 c4 f8 bc 6b b8 20 bd ba a8 3b be
       -0.038379923 -0.030367315 -0.039238375 -0.18326083
0003c0 0e 1d ce 3d e2 98 d4 be 52 d1 c8 3e 41 e5 aa be
       0.100641355 -0.4152289 0.392222 -0.33378032
0003d0 3b b3 b7 bc a0 87 6a bd 91 5f f6 3d 37 f7 34 be
       -0.022424331 -0.05725825 0.120299466 -0.1767243
0003e0 a2 fa ca be 8f 94 eb bd b9 6f 9d bc 47 50 86 3c
       -0.39644343 -0.11502945 -0.019218313 0.016395701
0003f0 fa c9 19 bc d1 7f 07 bd 88 e1 5e bb 8e e4 30 bd
       -0.009386534 -0.03308088 -0.0034008939 -0.043186717

layer3.weight f4 [128, 256]
000000 d8 be 3b 3d 11 6e 5f bd 2e 7e 74 3c 14 b0 d4 bc
       0.0458363 -0.054548327 0.014922662 -0.025962867
000010 52 db 3c bd a3 9d 38 bb db 3c 52 bd 22 11 f1 3c
       -0.046107598 -0.002817013 -0.051327568 0.029427115
000020 31 30 6f 3d a4 30 9e 3c 15 f8 2f 3d bd f1 48 bd
       0.05839557 0.019310303 0.0429612 -0.049058665
000030 05 08 56 bd dd d7 2e be 30 94 77 bc b7 62 30 3c
       -0.05225374 -0.17074533 -0.015111014 0.010765723
000040 f2 f6 21 3d 88 65 2a bd 0f 1a 0e 3d fe e7 f2 bc
       0.039542146 -0.041600734 0.03469282 -0.029651638
000050 38 1f f7 ba 82 0c f9 bc 5b 77 a7 3c 30 47 ee 3d
       -0.0018853908 -0.030401472 0.020442655 0.11634672
000060 70 dc b7 bc 3a 35 00 3d 59 0c af 3c 24 12 d1 bc
       -0.02244398 0.03130076 0.021368193 -0.025521345
000070 66 00 02 bd 38 7b 53 3d 68 b3 5e bd 90 9b 4b 3d
       -0.03173866 0.051631182 -0.054370314 0.049708903
000080 1f 34 10 bd 3a a3 62 bd 9b ef 9f 3d 2f 71 be bc
       -0.035205957 -0.055331446 0.07809373 -0.02324733
000090 9f ff 09 3d 1a 19 ec bd 6d 37 6c bc 5c 72 c3 3c
       0.033691045 -0.11528225 -0.014417511 0.023858242
0000a0 ea 3b 1d bd d7 5a 62 bd d7 17 15 bf 7a 2c b3 3c
       -0.038387217 -0.055262413 -0.582395 0.021871794
0000b0 ce a3 b3 3c 47 d5 d9 bc 3a 21 b3 bc 52 4a 37 3d
       0.021928694 -0.026590956 -0.02186643 0.04474861
0000c0 ec 05 07 3d dd 18 96 bc 74 78 0a bc 31 39 ad bb
       0.032964632 -0.018322403 -0.00845157 -0.0052863588
0000d0 07 f3 29 3d 1d ae 57 bd d6 9a 58 3d b6 0b ad b9
       0.041491535 -0.05265628 0.052882038 -0.00033005857
0000e0 6e 19 45 3d 6e cd b8 bc 72 6e 72 3c bc 54 01 bd
       0.048119955 -0.022558894 0.01479684 -0.03157495
0000f0 7a 80 40 bd 64 45 e1 3c 0f 20 0c 3c 82 b9 e6 3a
       -0.046997525 0.027498908 0.008552565 0.0017602893
000100 01 14 96 be e3 38 39 bd 73 84 ce be 9e 61 a8 3c
       -0.29312137 -0.045220267 -0.40335426 0.02055436
000110 fd 7d 3b bd e2 14 1e bd 97 54 04 3d 39 da 2f 3d
       -0.04577445 -0.038594134 0.032307234 0.042932723
000120 0a ee 84 3c 12 e5 a5 3d 65 87 84 3c 46 1c 0d 3d
       0.016226787 0.08100332 0.016177842 0.03445079
000130 51 8c 6c bc 76 d3 b8 bd e5 3e 36 3f 3b 36 09 bf
       -0.014437751 -0.09024708 0.7118972 -0.53598374
000140 8c 51 77 bc f2 af f8 bd 2a 0c 37 3d 8b bf 50 3d
       -0.015095126 -0.12142934 0.044689335 0.05096392
000150 82 41 20 bf b4 4f 27 bb 20 02 79 3c b7 6c 47 3c
       -0.62599957 -0.0025529684 0.015198261 0.012171916
000160 98 2b 08 3c 68 a9 32 3d 90 68 fa bc 1c 87 bb bc
       0.008311175 0.04361859 -0.030567437 -0.022891574
000170 04 1a 1b bd be 2a 6a bd 8e 27 45 bd 37 05 85 3d
       -0.037866607 -0.05716967 -0.048133425 0.06495135
000180 f5 52 d1 3c 45 00 a7 bd e8 de 25 3c 5d 18 9b bc
       0.025552252 -0.08154348 0.010123946 -0.018932516
000190 6a 73 ee bd 12 4b 51 3d c8 f5 81 3c fe 48 38 3d
       -0.11643107 0.051096983 0.015864268 0.044991486
0001a0 f8 ae 5b 3d 7d dd ea bb 6b 21 50 be f8 ad 76 3d
       0.05363366 -0.0071675167 -0.20325248 0.060224503
0001b0 8f c7 bf bd 92 65 5a be 13 b0 4c bd 9e bb 25 3c
       -0.09364235 -0.21327808 -0.049972605 0.010115532
0001c0 e8 ce 8b 3c 17 f3 80 3c 0f 24 4a bd c8 d1 2f 3c
       0.017066434 0.015740914 -0.049350794 0.010731168
0001d0 f1 6a cc 3e cc cc a1 be ed d6 74 3e 39 2c 04 be
       0.3992534 -0.3160156 0.23910113 -0.12907495
0001e0 6c 40 3d bd f2 48 5c bf ff b0 bd be 30 fb 74 3c
       -0.046204016 -0.86048806 -0.370491 0.014952466
0001f0 d9 37 d4 bd ba b5 37 bb dc 60 a5 3e 4c 86 3c bf
       -0.103622146 -0.0028031901 0.3230046 -0.7364242
000200 35 ed 1b bd 26 0b 2b 3c 57 33 03 3d 04 07 ff 3c
       -0.038068015 0.01043967 0.032031383 0.031131275
000210 4c 7d 60 bc 2f 0c 43 bb 05 a0 ea 3c a3 44 c1 3c
       -0.013701748 -0.00297619 0.028640756 0.023592299
000220 2a 22 30 3c 4c c7 57 3d b5 45 64 bc 39 81 13 bd
       0.010750333 0.0526803 -0.013932635 -0.03601191
000230 72 37 aa 3c 80 3d ea 3c 98 14 06 ba c7 a7 03 bf
       0.020778392 0.028593779 -0.0005114763 -0.5142788
000240 24 22 2c bf fa 34 58 3e 61 0c 04 3e 03 7b 92 3c
       -0.67239594 0.21113959 0.12895347 0.017880922
000250 23 c9 40 bd 9f c9 68 be 33 d8 aa bc 33 41 3a bd
       -0.04706682 -0.22733162 -0.020855045 -0.045472335
000260 08 7e 96 3d 10 34 fa bb 8e 44 a9 bb 28 a2 d7 be
       0.07348257 -0.007635601 -0.005165643 -0.42115903
000270 cc 82 40 bd 32 a3 44 3d 20 96 8c be e8 6c d4 bb
       -0.046999738 0.048007198 -0.27458286 -0.006482709
000280 58 37 a7 3c 6a f2 d9 3c 9e 94 b5 bc 7c 9f 52 3d
       0.020412132 0.02660485 -0.022165593 0.051421627
000290 95 69 59 3d ef fd 8e bb e0 42 14 bd e4 0d 09 3d
       0.053079206 -0.0043637673 -0.03619659 0.033460513
0002a0 85 73 88 bc 1d 89 e3 bb ad ed 2f be bb 6d c8 be
       -0.016656647 -0.0069438354 -0.1718051 -0.39146218
0002b0 6d a0 e8 bc cc 52 40 bd 20 3f 85 bd ec 77 50 bd
       -0.02839681 -0.04695396 -0.06506181 -0.050895616
0002c0 e5 fa 82 3e 8c d0 3c 3c 56 ee dc bc 9e e1 10 3e
       0.25582042 0.011524331 -0.026969116 0.14148566
0002d0 6f f6 12 bf 1c 95 55 bd 3e 63 3b 3b 8c 77 b7 3e
       -0.5740728 -0.052144155 0.0028593089 0.35833395
0002e0 33 26 38 bc 67 9b bf 3b 8c e5 b4 3c 00 c3 74 bc
       -0.011239576 0.005847383 0.022082113 -0.01493907
0002f0 1c e7 16 3e c9 8b 2f bd 97 a3 5c bd 61 80 1d 3c
       0.14736599 -0.04285792 -0.05386695 0.009613127
000300 ce 34 57 bc 3d a3 85 3b 2e 4f b8 bc 8d 01 2a 3d
       -0.013135148 0.0040782974 -0.022498693 0.041505385
000310 3e ab 89 bd c5 27 2e 3d 7d 8f df bb ad e6 e8 bc
       -0.06722115 0.042518396 -0.006822525 -0.028430307
000320 98 30 01 bc c8 ac 8a bc 1b ff ed bb c2 71 25 bb
       -0.007885121 -0.016928092 -0.007263077 -0.0025244807
000330 36 01 45 bd f5 92 cc 3b 0a 34 ef 3b 18 4f f6 bc
       -0.048096858 0.0062431046 0.0072999047 -0.030067012
000340 da 52 5d bb e4 f5 34 be 6f 76 08 ba 1b fb 8c 3d
       -0.0033771307 -0.17671925 -0.0005205636 0.06883832
000350 1e b4 63 3c 08 bb e5 3b dd 29 58 bd 24 86 3f bd
       0.013897924 0.0070108213 -0.0527743 -0.046758786
000360 8f eb 40 3d 1c 92 4d 3d 9f 15 00 3d 7c ce 5e bc
       0.047099646 0.05018817 0.03127062 -0.013599034
000370 ae 87 2b bd e6 b2 5a 3e 48 64 93 bc 60 f5 45 bd
       -0.04187744 0.21357307 -0.017992154 -0.04832971
000380 bf 1b 9b 3c 96 12 3c 3d ad fe 3a bd 45 2e 41 3c
       0.018934129 0.045916162 -0.045653034 0.011790817
000390 83 b2 59 bc 32 3d 25 3d 47 d4 4a bb 9b 65 d4 3c
       -0.013287189 0.040341564 -0.003094928 0.025927356
0003a0 70 5c c7 3c b0 55 bb bc 75 34 59 bd 9a 57 32 3d
       0.02433607 -0.022868007 -0.053028543 0.043540575
0003b0 db 81 ee bc 3c 55 03 ba 7d b5 26 bc 44 43 f3 be
       -0.029114654 -0.00050099543 -0.010175106 -0.47512257
0003c0 24 16 be be ec cf c0 3e b3 a3 34 3f 4c ce db bd
       -0.37126267 0.37658632 0.70562285 -0.107327074
0003d0 0b 79 18 bb 11 69 9b 3b 19 21 a3 be d8 f8 0f 3d
       -0.0023265507 0.0047427495 -0.3186119 0.035149425
0003e0 78 74 de bd b4 50 d0 be c9 d3 2a bd eb e3 5c bc
       -0.108620584 -0.40686572 -0.04170588 -0.013482074
0003f0 c4 f2 00 3c 41 1b 2a bd 29 41 5f 3b 51 e3 da 3c
       0.00787038 -0.041529898 0.0034065938 0.026719721

layer3.bias f4 [128]
000000 9a 7f 35 be d8 dd be bd 65 e8 a3 be 5d 40 97 be
       -0.17724457 -0.09319657 -0.3201324 -0.29541293
000010 45 ed 94 3e 1e 5d 9e be 8a ee 98 be 45 9a 1a bf
       0.29087272 -0.30930418 -0.2986949 -0.60391647
000020 6b 9d c6 be 8e 6f c7 be 1e 20 ed be 8f 1b a9 3c
       -0.38791975 -0.38952297 -0.46313566 0.020643024
000030 65 d1 e6 be c2 fc a8 be 1d 4a eb bd be b2 40 3d
       -0.4508163 -0.3300534 -0.11488745 0.04704546
000040 47 cf c3 be 19 0b 1a bf 96 ce cf be de 4a 8d 3e
       -0.38244078 -0.60173184 -0.405873 0.27596182
000050 35 ff 0c 3e 1e 8f 45 be f7 42 8f bc 36 c9 ac bd
       0.13769229 -0.19292876 -0.017487986 -0.084368154
000060 c6 a6 ca bd ad ea b1 be 28 3a ad 3d 67 32 60 be
       -0.09895091 -0.34749356 0.08458358 -0.21894227
000070 92 85 0e bd ac e6 d1 be 4e 01 3e be ef e0 3a bf
       -0.03479535 -0.409963 -0.18555185 -0.7299947
000080 74 2f 44 be 3c 7a ec bd b0 f5 e0 3d e2 b7 d5 be
       -0.19158727 -0.11546752 0.10984361 -0.41741854
000090 13 86 73 be 9b e3 31 be 59 71 3d 3e 3f d4 aa 3d
       -0.23781614 -0.17371981 0.1850027 0.08341264
0000a0 4d 9f 92 be f2 44 e4 3d 99 dc a7 bd 92 df 8b 3d
       -0.28637162 0.11145963 -0.081963725 0.06829752
0000b0 3f 66 94 be b1 b3 dd bd 01 c6 30 3d c2 21 c5 3e
       -0.28984258 -0.10825289 0.04315758 0.38502318
0000c0 7e 1c d7 bd b8 06 33 be 65 00 ba be dc 47 0c be
       -0.10503481 -0.17483032 -0.36328426 -0.13699287
0000d0 b6 b7 a6 be e8 26 00 be 29 69 a4 3d e9 53 72 3e
       -0.32562035 -0.12514842 0.0802787 0.23664822
0000e0 70 6b 77 bd 97 82 2b bf 5c 28 b3 be d8 dc 8a 3c
       -0.060405195 -0.6699614 -0.3499173 0.01695101
0000f0 a2 ca ea be c4 21 f3 be 0e 60 a4 bd 3e 2b a5 bd
       -0.45857722 -0.474867 -0.080261335 -0.080648884
000100 05 24 b1 bd 0c d1 a3 3e 6e 9d ea be 5d 49 32 be
       -0.08649448 0.31995428 -0.45823234 -0.17410798
000110 99 c3 90 bf 61 38 19 be fb 3b 57 be b9 fc 1a bf
       -1.1309692 -0.14962913 -0.21018974 -0.60541874
000120 4c 62 72 3e 7a d3 ba be a5 1a 83 3d 41 5d 59 be
       0.2367031 -0.3648947 0.064015664 -0.2122698
000130 e1 c1 cc be 0b 05 81 be 3f 4f 4b be 5c 77 35 3d
       -0.39991668 -0.2519916 -0.19854449 0.044303283
000140 7b c5 ab bd 2b fe b0 be 1b 28 d4 be 5e 61 e5 3c
       -0.08387276 -0.34568915 -0.41436848 0.02800053
000150 5b 3f 0a bf 8f 53 99 bd 92 95 13 be d5 6a 52 3e
       -0.5400292 -0.07486641 -0.14412525 0.20548566
000160 4f 29 de be a1 2b 8e 3c da 72 02 be ca b1 a1 3d
       -0.4339089 0.017354788 -0.12739125 0.07895239
000170 4b 24 70 be 30 6a f5 bc 3a 0d 74 be 1c ee cb bc
       -0.23451345 -0.02995786 -0.2383317 -0.024893813
000180 16 64 40 bf 03 17 6f be 20 8c a7 be 3e 24 52 3a
       -0.7515272 -0.23348622 -0.32724094 0.0008016265
000190 33 77 3f be a8 fa ae be 82 5a 84 be a1 df 4e be
       -0.18697815 -0.3417561 -0.25850302 -0.20202495
0001a0 0b 73 1d bf 8c 5e 8f be d6 b7 88 be 57 a6 ad be
       -0.61503667 -0.2800182 -0.26702756 -0.3391597
0001b0 6d ea c1 bd b8 77 bb be bf 11 4e be 8c 28 dc be
       -0.09468541 -0.36614776 -0.20123957 -0.42999685
0001c0 2e c8 08 3f 12 d2 c6 bd ff 5c 8d be d5 6f 29 bf
       0.5343045 -0.097080365 -0.27610013 -0.6618627
0001d0 4b 45 9d be 58 0e 8f be 2f 96 40 3e 83 7c a3 be
       -0.3071693 -0.2794063 0.1880729 -0.31930932
0001e0 ba 68 25 bf 1b 69 b2 be 59 37 23 bf f4 38 ed 3d
       -0.64612925 -0.34845814 -0.6375633 0.115831286
0001f0 1d b2 9c be 56 45 2d 3f 4e eb 20 bf 18 ca 2a be
       -0.3060464 0.67683923 -0.62859046 -0.16678655

layer4.weight f4 [3, 128]
000000 33 4c e9 3e a2 cb 8d 3c e7 c2 0b 3e a6 6c e4 be
       0.45565948 0.017309014 0.13648568 -0.44614142
000010 b0 be 05 bf ed af 12 be 94 b7 1b bd 40 fa 80 be
       -0.5224409 -0.14324923 -0.03801687 -0.25190926
000020 b0 31 ee 3b df 79 49 3f ab d0 82 3e 48 81 0f bf
       0.007269107 0.78701586 0.25549826 -0.5605664
000030 7b bf df 3f 31 e5 a9 bf 15 0d bd bd d4 21 4e 3d
       1.748031 -1.3273069 -0.09231011 0.05032523
000040 fe 70 87 bf 52 a2 b3 be fd 0c 44 3f 91 7e 66 3d
       -1.0581357 -0.35084778 0.7658232 0.056273047
000050 f5 4d 21 be ce 58 8c 3e 2d 62 6f bd af ea 4c 3f
       -0.15752394 0.27411503 -0.058443237 0.800456
000060 3b e6 64 3c c1 63 63 40 d8 e2 00 3e f0 c5 aa 3e
       0.013970907 3.5529635 0.12586534 0.3335414
000070 65 2b 80 3b b8 a1 09 be db 4b ab bf c6 c7 83 3f
       0.003911423 -0.13440597 -1.3382524 1.0295341
000080 dd d0 ce be 17 8b d6 3c 20 de 32 bf f4 1e 10 be
       -0.40393725 0.02618937 -0.69870186 -0.14074308
000090 da 97 89 be d3 03 5e 3d 58 1c 1b be b6 ad 9c bf
       -0.26873666 0.054202866 -0.15147531 -1.2240512
0000a0 9f 64 9f be 84 e6 f5 bf 4b cf 4b bf f6 6b 90 3e
       -0.31131455 -1.9210973 -0.7961318 0.28207368
0000b0 ed f4 32 bf 92 c9 ef 3e e1 74 b8 3e 9a 87 a0 3e
       -0.6990498 0.46833473 0.36026672 0.31353456
0000c0 18 84 c2 c0 cc c9 18 bf a4 83 6a be 57 37 0a bf
       -6.0786247 -0.5968292 -0.2290178 -0.5399069
0000d0 aa 14 8f 3f 52 64 97 3c 15 19 8b bf dd be e3 be
       1.1178181 0.018480454 -1.086703 -0.44481555
0000e0 97 b3 52 bf e3 f0 70 3f ac 49 f0 3e 1e 97 d2 3e
       -0.8230528 0.94117564 0.46931207 0.41130918
0000f0 30 74 67 bf 06 7e 44 40 92 37 08 c0 d8 7c 10 c0
       -0.90411663 3.0701919 -2.1283917 -2.2576199
000100 e7 de e7 be 76 d4 80 3f c4 16 f3 bf 53 b5 4e 3e
       -0.45287248 1.0064838 -1.8991323 0.20186357
000110 d2 38 19 c0 d3 30 f5 be d4 29 4f bd aa d9 01 3d
       -2.394093 -0.47888812 -0.050577 0.03170172
000120 3f eb 02 bf 6f fc 46 3f 22 85 48 bd 33 88 a3 bd
       -0.5114021 0.77728933 -0.04895509 -0.07984962
000130 de 09 69 c0 3a aa 12 be 58 ae 0b 3e 48 70 bc 3e
       -3.6412272 -0.14322749 0.13640726 0.36804414
000140 89 63 78 40 0e 72 1d 3e 38 59 bf be ed 9c c4 be
       3.8810751 0.1537554 -0.37372756 -0.38400975
000150 c2 c6 96 3e bd 6f 09 be 42 ae eb be ee a7 a2 bf
       0.29448515 -0.13421531 -0.46031386 -1.2707498
000160 89 38 2c 3f b7 ef 87 3f 5e cc 2d 3d b7 6a fc bd
       0.67273766 1.062003 0.042431228 -0.12325042
000170 17 5f 99 3d 4d 05 cd be 74 38 2c be 7f 33 3b 3d
       0.0748884 -0.40043107 -0.1681841 0.045703407
000180 d8 c0 52 3e d6 24 2f c0 c7 5b 75 be b4 7d c4 3e
       0.20581377 -2.7366233 -0.23960792 0.38377154
000190 6e 42 ae 3d 2d 46 9b 3f 6c 87 c6 be d7 ba ab be
       0.08508764 1.2130791 -0.38775194 -0.33540985
0001a0 50 97 0b 3f 91 e2 83 bf 3c 13 46 bf 9d 7d 53 bf
       0.5452776 -1.0303518 -0.773731 -0.82613546
0001b0 28 89 af c0 e8 75 38 be c6 03 37 bf 35 ab 56 be
       -5.4854927 -0.18013728 -0.7149013 -0.20963748
0001c0 4e d5 01 3f 2c 2f 8b bc 8e 54 1c bc c0 06 5b be
       0.507161 -0.016990267 -0.009541644 -0.21389294
0001d0 db 58 a0 3e f3 79 38 40 bc 1a 08 be cd 8c 0e 3e
       0.3131779 2.8824432 -0.13291448 0.13920899
0001e0 a3 69 56 be 58 27 ae bf 8b f2 f1 be 84 48 3b 3c
       -0.20938735 -1.3605757 -0.47255358 0.011430863
0001f0 e6 3e 5a be 8f dc 1d 3e 22 ea 6a be 50 79 de be
       -0.21313056 0.15416168 -0.22940877 -0.4345193
000200 c7 65 58 be bf 47 2d 3d 5b 02 63 3e b2 1f ad 3e
       -0.21132575 0.04230475 0.22168867 0.33813244
000210 01 6d a8 3e 4e 8f 8c bb 8c b1 98 3e 98 60 f9 3e
       0.32895663 -0.004289544 0.29822958 0.48706508
000220 9a 55 6b bf c9 1d dc 3d e5 99 f0 3e ac d2 d3 40
       -0.9192749 0.107478686 0.46992412 6.619467
000230 1e 44 15 be fc e6 c2 3e 6b ea b8 bc e6 75 fc 3e
       -0.14576766 0.38066852 -0.022572717 0.493087
000240 f9 32 02 be c2 ee 97 3c 8f 18 11 40 d1 7a 38 bf
       -0.12714757 0.018546466 2.267124 -0.720624
000250 40 7a 14 41 fb 10 6c 3e 6a 00 5a 3d 17 1c 36 be
       9.279846 0.23053353 0.05322305 -0.17784153
000260 d0 8a b7 3c 9e e3 1a bd ac 3a 21 bf d5 84 4c 3d
       0.022405058 -0.03781473 -0.6298015 0.049931366
000270 c4 72 c5 3d 17 e5 ad be b8 78 6b 3e 0a be 08 3f
       0.096410304 -0.33963844 0.2299527 0.53414977
000280 c7 bb d6 3d 3c 86 d2 bc 36 16 9d 3e 38 79 47 bf
       0.104850344 -0.025698774 0.30681008 -0.7791934
000290 c9 3a 92 be 9a ff 91 be 63 e5 c0 be 1a 57 de 3f
       -0.28560475 -0.2851532 -0.37675008 1.7370331
0002a0 b5 7d 75 3e 00 68 b8 3f 53 50 48 3f ae 8b 7c 40
       0.23973735 1.4406738 0.78247565 3.9460254
0002b0 ee 39 d4 3d 8c e2 7e 3e 54 1c cb 3e 85 46 72 be
       0.10362612 0.24891108 0.3967005 -0.23659714
0002c0 c8 7f 9b 3b f1 9b 93 be fc ec 1f 3f 08 22 f1 bd
       0.0047454573 -0.2882991 0.62470984 -0.11774069
0002d0 f4 6e 25 3e 40 4b 43 3b a9 26 90 40 2a 20 4a 3f
       0.16155607 0.0029799491 4.5047193 0.7895533
0002e0 e1 fa 26 3f f9 a9 21 3f 4f bf 85 be eb 9e 5c 3d
       0.6522656 0.6314998 -0.2612252 0.053862493
0002f0 ee 9b aa bf f2 b9 57 40 62 53 e2 bc bb c0 10 40
       -1.3328836 3.3707242 -0.02762765 2.2617633
000300 04 9b ac 3f 83 7e 59 bd 54 8b 0c be 54 f6 1e bd
       1.3484807 -0.053099167 -0.13725024 -0.038809136
000310 d5 20 cd 3e 71 9c 18 3d 12 bc 8c 40 1b 59 6c 3d
       0.4006411 0.03725857 4.397958 0.057702165
000320 0e 19 1c 3f 06 28 af be a9 4f 74 be ce 42 87 3e
       0.6097573 -0.34210223 -0.23858513 0.26418155
000330 93 be 76 be 13 e4 bd bd b9 8b 4c bc 1f 82 da 3e
       -0.24096136 -0.09272017 -0.012484484 0.426774
000340 14 cc a7 3e 32 43 cd bd fa 5a 59 3f 8b 8b 6d 3f
       0.32772887 -0.10022582 0.84904444 0.9279105
000350 46 f5 00 3d a8 36 51 3f 57 61 37 be 94 c1 d4 3e
       0.03148391 0.81724024 -0.17908226 0.41553938
000360 62 85 bb 3e 41 27 4d 3f fa 7c 3c 3d 3c aa 1f 40
       0.366252 0.8013802 0.046017624 2.4947653
000370 b7 8e c0 3e fb 87 28 40 ee ca f7 bd b4 4d 5b bc
       0.37608883 2.6332996 -0.12099253 -0.013385225
000380 61 86 50 40 b0 0b 0e 3e ff ce ac be 2a bb c8 3f
       3.2582018 0.13871646 -0.33751675 1.5682118
000390 b5 cc b9 3d 49 20 b2 3f 9a 47 bf be aa 97 e5 be
       0.09072248 1.3916103 -0.37359315 -0.44842273
0003a0 57 c2 5e 3f 43 c0 6c 40 03 63 ac 3e 96 a5 18 bd
       0.8701529 3.6992347 0.3366929 -0.03726729
0003b0 9b d6 42 be 50 fc 55 3e 5a c6 3f be 75 3d 47 3d
       -0.19027178 0.20897031 -0.18728009 0.048642594
0003c0 13 51 33 bd de 79 2a 3d e5 2d a7 bd 53 1f 27 3c
       -0.04377849 0.041620128 -0.081630506 0.010200339
0003d0 33 0c 7a 3f e9 18 17 bb ee 3a 15 3e 37 58 a8 bf
       0.97674865 -0.002305562 0.14573261 -1.3151921
0003e0 60 6b 37 bd b9 15 18 3d 17 7c 4f be c2 a0 45 3f
       -0.044780135 0.03713009 -0.2026218 0.7719842
0003f0 cb ca e6 3e 54 8d 6b 3e e4 7e 97 3e aa 84 b4 bc
       0.45076594 0.23003131 0.29588997 -0.022035915

layer4.bias f4 [3]
000000 69 3c 71 3d ac ac 86 be 43 6f 5d be
       0.058895502 -0.26303613 -0.21624474
