src/rl_robot/reinforcement/checkpoint/crit.pth (torch, 13112 bytes, 3 tensors)

layer1.weight f4 [256, 9]
00000000: 4108 88be e3ee a6c0 1d5c abbf 18e9 1c3d
00000010: ba6c 6f3d 18e9 88bf f2f2 a3bd 5424 c53c
00000020: 4e4b 26be 4118 493e 2e83 4fbd d28a 1f3e
00000030: cc02 2e3c f4a8 29be d7c1 96bd 371f 333c
00000040: a03d 24bd e138 45bd 7a12 4a3f 6018 9abf
00000050: 1da3 353e 258f 1fbe 6a20 37be d825 05bf
00000060: fc7a b3bd ed27 f03e 1d44 11bf a5dc 3d40
00000070: f3ee a4bf e436 70bf a13a 1abc dd31 073a
00000080: ce2c 21bf 1d39 aabd 0097 46bc 4c23 61bd
00000090: 396e 8b3e b3f0 ca3f 7cd9 8c3e aaf6 00bf
000000a0: 61c2 62be 9618 bf3e 4c9c 3ebf 9379 d53d
000000b0: 2d3f 48be 3901 ec3f 14e5 29c0 2205 e33f
000000c0: 8c49 2abe 94bf fcb9 7721 3d3f 7e24 d13e
000000d0: 14ce 99bd ad9e 973d 945b 0c3d 60fa 3f3f
000000e0: f375 a9be 5e4c f6be 6b2d 22bf 722b 40bf
000000f0: 554e 063f 62ee 18bc 6dcc 3e3d 6b52 5040
00000100: 3e07 97c0 0e47 e3be 2b3d c5bc 02e5 17bc
00000110: 883c ecbd 42c1 88bd e192 6b3d 02d2 543c
00000120: 2385 42be f0a5 d5be 0a8e 2cbe c5bc ffbb
00000130: c3be 40be c521 723e c921 033d 6d0b 513d
00000140: c257 0abe 6d9b 193b 44c2 c5bd 2940 c4bd
00000150: 807b 3fb9 aab3 69be 6462 453e f53d df3d
00000160: a414 073b 1ec8 e63c f248 33c0 9ea4 fc3b
00000170: d62f a33f 03e0 063d ced3 eabe 91b2 8e3f
00000180: 01c8 0bbf a5e0 f2bd 1265 febc 6da0 5fbf
00000190: 9214 64bd 24c3 74be 28b3 93be 5bf1 10bf
000001a0: 341b c93e bc1d 663f 4a55 0e3f eaeb a7be
000001b0: 04ca ae3f e09a aec0 a111 e03e 7670 58be
000001c0: e48c c0bd 6dcc 2ebf 015e cdbd 61f7 e53e
000001d0: 2fa4 41bd 692c f83e ccdf 8ebe 651e d83d
000001e0: 77ec 583e 7e16 cc3e be18 973f 647e 7c3e
000001f0: 5c63 5e3d 506f 963d 38d6 4e3f 76f1 32bf
00000200: faca 21c0 61f0 dcbd e76e 3ebe 36a3 54c0
00000210: 5ec6 02bd 3330 c1bd 83fb c6be 5568 2cbf
00000220: 9ae9 1ec0 8260 c03f d5f3 fc3e fe48 d23d
00000230: 8e3b 353e fed9 d63e d43a a3bd 81e6 833e
00000240: 508b 2bbf 65d2 f13c b651 743e 9569 c4bd
00000250: 0ca1 05be 2240 5abd 8521 27be ce1d 81be
00000260: 23de 2d3e 2e65 58bf 477d 3a3e 96b0 1ebf
00000270: 11a5 dcbe fc19 e23d 5828 903e b105 06bc
00000280: 06d2 763d 0601 ae3e 343e 1f40 f45a 6bc0
00000290: ca0b 4f3f 730d 76be 355b 43be 7376 6c3f
000002a0: 29f7 2a3e aa40 ab3e ae9a 84bd b1d2 463f
000002b0: 2d76 113f a5fc 81bf fab8 823e 24f5 abbd
000002c0: 6daa 963f acd0 0cbf 907d 2dbf 3125 2dbe
000002d0: 3d89 f03e eae0 083f ee7f afbd e191 4cbe
000002e0: 71f5 62be 0531 c63e 6091 13bf f357 913e
000002f0: 4be8 a73e da75 953e f162 c5c0 34a3 b53f
00000300: 1c5d 43bc 3db6 b8bd ea0a a03e eee9 63be
00000310: b714 e2bd 12ce 863e 72d1 80bd 53bd 04c0
00000320: 9522 0341 4635 9fbb ba18 d73c 3f4b 123e
00000330: 679f bb3c d14e 1c3c 9395 4d3f d17d a73e
00000340: fcec 953f c46d 733f 2537 acbe 1b55 c8be
00000350: 459e a53f 8ba5 fbbe b9e5 2dbe 62fe 8cbd
00000360: 9618 8b3f 9548 2bbf bb56 373f b4ca 843e
00000370: b841 ae3d 7bed 053f a1d3 1e3f 4327 3d3f
00000380: 8c75 8e3e 7426 90bf 8330 823f 63f0 47bf
00000390: 4967 b0be 0db3 76bd 2cad 8fbe afe6 5e3e
000003a0: 3860 a5be e745 dcbd 5a65 c9be 4831 d63e
000003b0: cbe0 3ebe 24ef edbd 9c45 25bf 3c36 e43f
000003c0: de8d 1c3e 1e64 e43e ca45 3abe 53ea a1c0
000003d0: 51c4 ac3e 06f1 0cc0 3e3a 8a3d 94aa 82bc
000003e0: 4978 e13d accd ad3d 30cc 05bd ced6 f5bc
000003f0: e012 213f 781a 80be 7d9e c1bf 0ec6 0e3f
-0.26568797 -5.216661 -1.3387486 0.038308233 0.0584533 -1.0696135 -0.080053225 0.024065174
-0.16239664 0.19638158 -0.050662212 0.155803 0.010620784 -0.16568357 -0.07361191 0.010932735
-0.040097833 -0.048149947 0.78934443 -1.2038689 0.17738004 -0.15581949 -0.17883459 -0.5201087
-0.08763692 0.4690546 -0.5674456 2.966592 -1.2885422 -0.93833756 -0.009413392 0.00051572715
-0.6295899 -0.08311675 -0.012120962 -0.054965302 0.2723253 1.5854706 0.27509677 -0.5037638
-0.22144462 0.37323445 -0.7445724 0.10423579 -0.1955535 1.8437873 -2.6546068 1.7735941
-0.16629618 -0.00048207922 0.7387919 0.40848154 -0.075100094 0.07403312 0.034267023 0.74991417
-0.330978 -0.4810514 -0.6335055 -0.7506629 0.52463275 -0.009334179 0.046581674 3.2550304
-4.719634 -0.44390148 -0.024077019 -0.009270908 -0.11534983 -0.06677486 0.05751312 0.012989523
-0.189961 -0.41728163 -0.16851059 -0.0078044855 -0.1882277 0.23645695 0.032014642 0.051036287
-0.1351004 0.0023438588 -0.09656194 -0.0958255 -0.00018261187 -0.22822443 0.19275814 0.10900489
0.0020611668 0.028171595 -2.8013272 0.0077100536 1.2748973 0.032928478 -0.4586472 1.1148244
-0.54602057 -0.11859254 -0.031054053 -0.87354165 -0.05568368 -0.23902565 -0.28847623 -0.5661828
0.39278567 0.8988912 0.5559889 -0.32797176 1.36554 -5.4564056 0.4376345 -0.2113665
-0.09401873 -0.6828068 -0.100276954 0.44915298 -0.04727572 0.48471382 -0.27905118 0.10552672
0.21183954 0.3986091 1.1804426 0.24657589 0.054293975 0.0734545 0.8079562 -0.6989969
-2.5280137 -0.10788036 -0.18596993 -3.3224616 -0.03192746 -0.094330214 -0.38863763 -0.673467
-2.483008 1.5029452 0.4940478 0.102678284 0.176985 0.4196319 -0.07970205 0.25761798
-0.6700945 0.02951927 0.23859295 -0.09590451 -0.13049716 -0.053283818 -0.1632138 -0.25218052
0.1697927 -0.8452939 0.18211852 -0.619882 -0.43094686 0.110401124 0.2815578 -0.008180068
0.060258888 0.33985156 2.4881716 -3.6774263 0.80877364 -0.24028568 -0.19077761 0.9236824
0.16695847 0.33447772 -0.06474815 0.7766524 0.56820947 -1.0155226 0.2553175 -0.08396366
1.177076 -0.5500591 -0.6776972 -0.16908719 0.46979704 0.5346819 -0.085693225 -0.19977523
-0.22163941 0.38709274 -0.576437 0.28387412 0.32794413 0.29191476 -6.168328 1.4190431
-0.0119240545 -0.09019134 0.31258327 -0.22257206 -0.11039107 0.26329094 -0.062899485 -2.0740554
8.195943 -0.0048586456 0.026256908 0.14286517 0.022903157 0.009540276 0.8030636 0.32713178
1.1712947 0.95089364 -0.33635822 -0.3912743 1.2938925 -0.49149737 -0.16982163 -0.06884457
1.0866878 -0.66907626 0.71616715 0.259359 0.085086286 0.5231549 0.6204167 0.73888034
0.27824056 -1.1261735 1.0171055 -0.78101176 -0.344538 -0.06022935 -0.28061807 0.21767686
-0.32299972 -0.1075552 -0.39335138 0.41834474 -0.18640439 -0.11617878 -0.6455934 1.7829051
0.15288493 0.44607633 -0.18190685 -5.059854 0.33743528 -2.202211 0.0674939 -0.015950479
0.11009271 0.084864944 -0.03266543 -0.030009653 0.62919426 -0.25020194 -1.5126492 0.5577096

layer1.bias f4 [256]
00000000: 689d 8fbe ea20 45bd b3ca 483e 3bb3 1d3d
00000010: da7b e7be f118 8a3c 7b5c 923e b651 ba3d
00000020: 26a9 cdbd 41dd 3f3d d5ea c63d cb30 bbbd
00000030: 60d3 84be 4d04 93bf a036 7cbd d7af 303f
00000040: 1736 2dbe a243 26bf e97a 203e 15b9 1cbe
00000050: 26bc 973e a633 1c3e dd0b 33bd a6d8 0dbe
00000060: 905a 833e 115f 153f 1c93 cb3e c285 40be
00000070: d5a9 39bf 133a d8bd 354b 333d da60 8abe
00000080: be6c ad3e d0ba 2dbe 37ec c83e 0c29 f8bd
00000090: 5eff a23d a5e0 82be b449 61be add8 30bf
000000a0: f27d 0abe 654b 87bf da5d 933e 0a2f 19bf
000000b0: c33d febd 9b1e 63be 0ba8 223e 28bb 66bc
000000c0: 3992 23be 493d 6ebe 8261 01bd 6c31 a3be
000000d0: 48bb 54bf 80e0 d2be 3ec1 793d 82dc c2bd
000000e0: 583e 91be abb1 7cbf 52dc 5abe fe3a 98be
000000f0: ba60 f2be 96dd 023f 77a1 83be a312 77be
00000100: 3672 3d3f 6621 5bbe 16ed 85be 670a a6be
00000110: 51ad 03be 310b a1be 112d b6be bca8 14bd
00000120: 90fc 8bbd cf42 4fbf a775 6fbe 9aec 2dbf
00000130: eb2a 9ebd 8d53 c8be ddcd 9ebe f413 9abe
00000140: f52e e43c 5dfb c5bc cdb5 92bd f256 32bf
00000150: 58a7 10bf 1144 0fbf 9112 febe 7a1a d5bd
00000160: f18a 41bb efc4 69be 88aa ca3e 32ef 0ebf
00000170: 636d 05bf 3b78 86bd b486 c93e e62c 393d
00000180: 3dcf 76bf c017 cfbe e6c6 ffbe 0bcd f5bd
00000190: 3fe4 88be a510 a2be a6cf 96be 4b6f 29bf
000001a0: 8e41 c9bc 39a1 20be e7ed 35be 38e3 c0bd
000001b0: 7ef3 eabd c657 c9be 0625 093c f5ad 00bf
000001c0: 4be7 31be 70f5 2abf e88d 863e aeb9 ffbe
000001d0: 3e6b adbe ab6c e5be ec2b 3b3e 4115 94be
000001e0: 5c17 bbbe 83bd 653e b33d 76be 8977 29bf
000001f0: a890 1abf 33b0 f73c 2a7e 2cbd 9c65 44bf
00000200: ea32 0cbf f799 253e 904d bd3e 4126 273d
00000210: 8278 763e 45de 23bc 3375 83be 5847 fabe
00000220: 2f7d cdbe 5944 dcbd ee69 a1bd 0049 99be
00000230: c53a 42be f60b 1dbd 37ab 92be 001f 33be
00000240: 21cc 103e 35cc 41bf a958 27be f833 7bbe
00000250: d187 35bf 0deb babd 6376 10be e4e9 acbb
00000260: 83d5 6d3c 2446 96bf 9b5f 33be 7659 91be
00000270: a4dc babe 1d4a 153d 95a7 fbbe df19 683f
00000280: eeaa f93e 6b7a 9fbd 9263 2a3d 0ab6 843e
00000290: dc7d 2ebf cfd7 19be d099 0cbf f470 4cbe
000002a0: 8a3f f53e fa95 773d d1e1 03be e681 1b3f
000002b0: a1b3 b1bc 59a1 90bf b155 f33e eb85 9bbe
000002c0: 03d2 89be d178 0fbe 8bd2 093f e537 3abe
000002d0: 697e abbd 800b 0cbf c54d 52bf 2d96 fb3e
000002e0: 9378 94bd 04b3 38bf 9a63 11be b766 34bf
000002f0: 1de6 76bf bd1c 41bf b5c4 743d afa7 4dbf
00000300: ed33 f83c 877b 183d e916 38bd e8d3 dc3e
00000310: b4d0 443f 4353 a7bd ffc1 c43e abee 3cbf
00000320: 6661 21be 3058 f73e b412 23bd 058f 9ebe
00000330: a9c0 b6bd 3c7e 343f 0325 0dbf e4df 7cbb
00000340: 9189 bf3e 9425 8bbf 8bbd 73be ce2e 7cbc
00000350: 52af 06be ba6f 5abe f933 0fbf 4969 e8be
00000360: 34bc 18bf 920c bc3a d340 bbbe 78e3 593e
00000370: a161 713f 9fe8 c53d ac52 263f 5249 90be
00000380: ab7a 01be fcdb 1cbf ed9a 493d de86 65be
00000390: 8eb5 d1bc 8c92 8f3f 6c7a 78bd d33f 4dbe
000003a0: 3838 9abe 1527 d73c d1fb adbe 75a5 71be
000003b0: 2e88 c0be 35bf 83bf 27ef abbd fcc1 403f
000003c0: 9585 59bd e6a8 b43d 1011 f8be 5cbf 0fbd
000003d0: 488a ccbe b4aa bcbe 4a6a 1b3e 8ddf 05be
000003e0: ab8a 0a3e 521c 0dbe 28ae b8bc 7207 ba3e
000003f0: 4a4c b7be 693a 703d e6fd 6dbe 988f 173e
-0.2804978 -0.048127092 0.19608574 0.038501006 -0.4521168 0.016857596 0.28586182 0.090976164
-0.10042028 0.046841864 0.097127594 -0.09140166 -0.25942516 -1.1485687 -0.061575532 0.6901831
-0.16915165 -0.6494695 0.15671887 -0.15304978 0.29635733 0.15254077 -0.043712486 -0.13852176
0.2565503 0.58348185 0.39760673 -0.18801025 -0.7252477 -0.10557952 0.043772895 -0.27027017
0.33872026 -0.16965795 0.39242718 -0.12117204 0.07958864 -0.25562015 -0.22000772 -0.6908062
-0.13524607 -1.0569884 0.2878254 -0.598374 -0.12414124 -0.22179644 0.15884416 -0.014082707
-0.15973748 -0.23265566 -0.03158713 -0.31873643 -0.8309827 -0.41186905 0.060975306 -0.09514715
-0.28367877 -0.987086 -0.21373108 -0.29732507 -0.47339422 0.51119363 -0.25709125 -0.24128203
0.740024 -0.21399459 -0.26157445 -0.3242981 -0.12859084 -0.3145385 -0.35581258 -0.03629373
-0.06835282 -0.80961317 -0.23384725 -0.6793915 -0.0772303 -0.39126244 -0.31016436 -0.30093348
0.027854422 -0.02416771 -0.07163582 -0.6966392 -0.56505346 -0.55963236 -0.4962354 -0.10405441
-0.0029532278 -0.2282903 0.3958323 -0.55833733 -0.52120036 -0.06565901 0.39360583 0.045208834
-0.9640997 -0.40447807 -0.49956435 -0.120019995 -0.26736638 -0.31653324 -0.29455298 -0.66185445
-0.024567392 -0.15686502 -0.17766534 -0.094183385 -0.11472224 -0.39324778 0.0083706435 -0.5026544
-0.17373388 -0.6678076 0.2628014 -0.4994635 -0.33870882 -0.4480947 0.18278474 -0.28922465
-0.3654126 0.22435574 -0.24046974 -0.6619802 -0.6037698 0.030235386 -0.042112507 -0.76717544
-0.5476519 0.16172014 0.36973238 0.040807966 0.24069408 -0.010001724 -0.25675353 -0.48882556
-0.4013457 -0.10755224 -0.078815326 -0.29938507 -0.18967731 -0.038341485 -0.28646252 -0.17492294
0.14140369 -0.7570222 -0.16342415 -0.24531543 -0.70910364 -0.09126864 -0.14107661 -0.0052769054
0.014516237 -1.1740155 -0.1751694 -0.28388566 -0.3649646 0.036447633 -0.49151292 0.90664476
0.48763222 -0.07787021 0.041598864 0.25920135 -0.68160796 -0.1502373 -0.549222 -0.19964963
0.4790004 0.060445763 -0.12879111 0.60745084 -0.021692099 -1.1299239 0.47526315 -0.3037561
-0.2691804 -0.14010932 0.5383689 -0.18185385 -0.0837372 -0.5470505 -0.82149917 0.49138013
-0.0724956 -0.72148156 -0.14198151 -0.7046923 -0.96444875 -0.75434476 0.059757907 -0.8033399
0.030298198 0.03722718 -0.044943724 0.43130422 0.76880956 -0.08170178 0.38429257 -0.7380168
-0.15759811 0.4830947 -0.03981276 -0.3096849 -0.08923466 0.7050512 -0.551346 -0.0038585598
0.37409642 -1.0870843 -0.23802774 -0.0153920185 -0.13152817 -0.21331683 -0.5593868 -0.45392826
-0.59662175 0.0014347008 -0.36572894 0.21278179 0.94289595 0.096635096 0.649699 -0.2818094
-0.1264445 -0.6127317 0.049220014 -0.22414729 -0.025599267 1.1216598 -0.060663626 -0.20043878
-0.30121017 0.026263753 -0.33981183 -0.23598273 -0.37603897 -1.0292727 -0.08395224 0.75295997
-0.05310591 0.08821277 -0.48450518 -0.035094604 -0.3994925 -0.36848986 0.15177265 -0.13073559
0.1352946 -0.13780335 -0.022543982 0.36333805 -0.3580039 0.058649454 -0.23241386 0.1480087

layer2.weight f4 [1, 256]
00000000: 20b8 7a40 6779 a23b 7110 26be b40e 48bf
00000010: 99d9 ff3e 32ea f13e 1c64 88bf dd85 fbbf
00000020: 2251 d2bb db2c 92b9 3899 863f 6d7a 68bf
00000030: 4cfb aa3f 7025 04c0 12f0 013f c5e2 b63f
00000040: 854e c7bd 8432 febe 1fd1 653f 9565 bcbe
00000050: 290c 77be 7524 fabf 46f7 d8bf 1f64 803e
00000060: 49d6 c03e fa51 febe 381d 3bbf ae90 0f40
00000070: 837a b6bf 867d a13f 451b ccbc 8baa 94be
00000080: 14e1 0e3e 89dc ddbe 700b 823f d227 99be
00000090: b513 9b3e 8258 87bc dc3e 123f 4528 c6bf
000000a0: 305e 97bc fd43 c4bf a6c7 5a3d 9003 75bf
000000b0: 1d95 88bc 6fe9 073f 01bd ae3f a42b febf
000000c0: 8b15 77bf ab98 c13e 327f 64bf f0c5 c9bf
000000d0: 79a8 91bf 5ccf e73e 6b09 993f cd70 58c0
000000e0: 99a4 c33f af51 4a3f 6cd6 13bf 7136 00bf
000000f0: ca1b b43c d293 723e 1930 803f 6213 c33c
00000100: 1aeb 2a3f f14b 30c0 17f4 e9be 8473 9cbc
00000110: ed61 f03b b813 e33b 496c 2b3f a8da 973f
00000120: 6b9f 72bf 6f6c 33bf 2021 d6bc 91ea 01bd
00000130: a12a 8fbf ffd1 27be 0339 3bbe 0457 9abc
00000140: d8ed b4bf 1023 ec3c 50e7 b6be 20c8 2dbf
00000150: cd99 64bf 9673 88bf b661 58bf 349f c83f
00000160: cd45 9abf b5da 19bc 1371 68be 6f11 ebbf
00000170: 951e dfbe e29a 893f 70c5 c5bd 1f46 75bc
00000180: 44e4 c73f bda8 8cba eac6 36bf 1da9 543f
00000190: c1bf fbbe 03bb 303f a442 8e3f 1350 803f
000001a0: 39c1 0e40 cc09 f23f 6a6b ce3e 26c9 4d3f
000001b0: f6b3 33c0 5f70 ecbe 02bb 0ac0 8a25 dcbe
000001c0: c7c7 f6bb b53e 47bf 8c23 f13f 7125 ab3f
000001d0: c349 69bf f372 a8be 5d04 5d3e 855a 07bf
000001e0: 0a9f c7be 0396 963f 1735 0dbf b017 c5be
000001f0: 112b e13e 90d7 6dc0 80dd 64bf 99c8 d8bf
00000200: c37b 8fbf d0be 5c3e 133c c93d 9369 ee3e
00000210: 7abb 5c3f e10c 2fc0 b176 0bbe 0134 81be
00000220: 6b4a cbbe 7f45 a5be 1280 4e3c 57ac a33f
00000230: 3310 5f3f 4686 0c3f 7edb 96be c504 9bbe
00000240: d073 c5be 47fa dbbf 30bd 8fbd 94e9 e43f
00000250: 11b5 13bf 988e f5bb 7c50 8a3b 6b2a f2bf
00000260: d211 0d3b 36c1 dabf e375 adbc e69f 55be
00000270: b77a 8ebf 82d5 acbe 3a4d 38c0 c033 3c3f
00000280: fbf2 fd3e 63a7 843e 4029 923f 6961 ad3f
00000290: e3da 1540 6612 3d40 bc05 803e 35ae fabc
000002a0: aec3 fd3e 93b5 153f 2375 d63f 8683 783f
000002b0: 0877 f53e 42ac b9bf 3c0e 74be 2296 923f
000002c0: 6632 2e3f 1031 cabf 3f20 07bf 5561 babc
000002d0: 1512 c73b 74bd ddbe 412e 543f d527 ae3e
000002e0: ceb3 a3bc 1d15 b3be 1024 8fbc ca04 fd3f
000002f0: b5f8 9dbf e7e8 5bbf a176 dbbd 007f f6bf
00000300: 46ae 09bf a230 6b3f 8b58 ee3f 4a64 05bf
00000310: a74c 823f fbf8 55bc d85f e33f 08b5 24c0
00000320: 1333 c23b c817 173f ff38 6cbe 3e1b 4ec0
00000330: 8ff9 48bd e4de 593f 703f 5dbf 06dd 7c3f
00000340: bae5 a53d ce74 80bf b677 0fbf 053c 49be
00000350: a08a d9bc 79b4 b73f 3d2d 37bf 9d64 06c0
00000360: 92e9 b53f 35a6 30c0 b964 dbbf 88e0 22bf
00000370: 7912 9f3f 751d 84bf 0afd da3e 1bb0 b1be
00000380: 9cb3 e5be bd63 9abf db4b f23e cd79 ad3c
00000390: 6b14 babe 9576 fbbf 92aa fd3d 662f 813e
000003a0: 017f 0e40 8572 183f da9b 3bbf 125c b13c
000003b0: 7c6b 9ebc 2631 643f 5013 18bf a97c 1c3f
000003c0: a7d5 9ebf 6fd6 c23e f196 f6bf b539 a4be
000003d0: 8de7 cdbf 0899 1fbe ab6d b33f 87a5 0440
000003e0: e53f 68bf ce6c f73f 2a9b 70bc 9411 f53e
000003f0: 21fc dabe 1330 96be 3a74 18c0 b407 25bd
3.917488 0.00495832 -0.1621721 -0.78147435 0.499707 0.4724899 -1.0655551 -1.9650227
-0.006418363 -0.0002788071 1.0515509 -0.90811807 1.335794 -2.064785 0.50756943 1.4287955
-0.09731773 -0.49647915 0.8977222 -0.3679625 -0.24125732 -1.9542376 -1.6950462 0.25076386
0.37663487 -0.49671918 -0.7309146 2.2432055 -1.4256138 1.2616432 -0.024915347 -0.29036364
0.13953048 -0.43332317 1.015974 -0.29913193 0.30288473 -0.016521696 0.57127166 -1.5481039
-0.01847753 -1.5333248 0.053413056 -0.9570856 -0.016672665 0.53090566 1.365143 -1.9857068
-0.96517247 0.3781179 -0.89256585 -1.5763531 -1.1379539 0.4527539 1.1955999 -3.3818848
1.5284606 0.7903089 -0.57749057 -0.5008307 0.021985907 0.23689201 1.0014678 0.023812953
0.66764987 -2.754635 -0.45694038 -0.01909805 0.0073358924 0.006929841 0.66962105 1.1863604
-0.947745 -0.7008733 -0.026138842 -0.03171784 -1.1184884 -0.16388701 -0.18283467 -0.01884032
-1.4135084 0.028825313 -0.35723352 -0.6788349 -0.8929718 -1.0660274 -0.84524095 1.5673585
-1.2052552 -0.009390523 -0.22699384 -1.8364695 -0.4357802 1.0750391 -0.09656799 -0.014970331
1.5616536 -0.001073144 -0.7139727 0.83070546 -0.49169734 0.6903536 1.1114087 1.0024437
2.2305434 1.890924 0.40316325 0.80385053 -2.807859 -0.46179482 -2.167664 -0.4299739
-0.0075311395 -0.7783006 1.8838973 1.3370801 -0.91128176 -0.329002 0.21583696 -0.52872497
-0.38988525 1.176453 -0.55159134 -0.38494635 0.4397817 -3.716282 -0.8940048 -1.6936218
-1.1209644 0.21557164 0.098259114 0.46564922 0.86223567 -2.735161 -0.13619496 -0.25234988
-0.39705214 -0.32279584 0.0126037765 1.2786969 0.87134093 0.54892385 -0.29464334 -0.30277076
-0.3856492 -1.7185754 -0.070185065 1.7883782 -0.5769816 -0.007493805 0.0042210203 -1.8919195
0.0021525514 -1.7090213 -0.021174377 -0.20861778 -1.11312 -0.33756644 -2.8797135 0.73516464
0.49599442 0.25908956 1.1418839 1.3545352 2.3414848 2.954248 0.25004375 -0.030600647
0.49563354 0.58480185 1.6754497 0.9707569 0.47942376 -1.4505694 -0.23833555 1.1452067
0.6804565 -1.5796223 -0.5278358 -0.02275149 0.0060751536 -0.43308604 0.8288308 0.34014764
-0.019983198 -0.34977046 -0.01747325 1.9767087 -1.2341524 -0.85902256 -0.10715986 -1.9257507
-0.53781545 0.9187108 1.8620771 -0.52106154 1.0179642 -0.01305985 1.7763624 -2.5735493
0.0059264987 0.5902066 -0.23068617 -3.2204127 -0.049066123 0.8510573 -0.8642492 0.98774755
0.081004575 -1.0035646 -0.5604204 -0.19651802 -0.02655536 1.4351951 -0.71553403 -2.099891
1.4211905 -2.7601445 -1.7140113 -0.6362386 1.2427512 -1.032149 0.42771178 -0.3470467
-0.44863594 -1.2061688 0.47323498 0.021176243 -0.36343703 -1.9645563 0.12386049 0.25231475
2.2265017 0.5954974 -0.73284686 0.021650348 -0.019338362 0.89137495 -0.5940447 0.61127716
-1.2408952 0.38054225 -1.9264814 -0.32075277 -1.6086289 -0.1558572 1.4017843 2.072603
-0.90722495 1.933008 -0.0146854315 0.47864974 -0.42770484 -0.29333553 -2.382094 -0.04029055
