src/rl_robot/reinforcement/checkpoint/target_act.pth (torch, 675940 bytes, 8 tensors)

layer1.weight f4 [512, 6]
000000 de 72 86 bf c1 52 02 c0 af 70 82 3f 68 f3 39 be
       -1.0503805 -2.036301 1.0190638 -0.18159258
000010 87 ef 36 be d1 b1 20 bf 7f fe ac be 51 34 8a 3f
       -0.1786481 -0.62771326 -0.33787915 1.0797216
000020 b1 64 77 3f dd 78 41 3e 58 9e ac be 52 aa 25 3f
       0.9663802 0.18893762 -0.33714557 0.64713013
000030 4d c5 ac 3f 86 1c 01 bf a6 28 cb 3f 1f f0 02 3e
       1.3497711 -0.5043415 1.587178 0.12786911
000040 0a f8 f1 3d 3b b5 25 3f 5b 01 17 3f 16 8a a0 bf
       0.11814888 0.6472966 0.58986443 -1.254214
000050 66 d0 0d bf 43 de 0a be 39 73 2b be a1 1f 51 bd
       -0.55396116 -0.13561349 -0.16743173 -0.051055554
000060 a0 2a 06 3e 4f 74 95 3f fc e7 a0 3e 58 20 8a 3e
       0.13102198 1.167612 0.3142699 0.269778
000070 0e 0e f0 be ed 8a 06 3e b7 47 5e c0 b0 1b ee be
       -0.46885723 0.13138933 -3.4731271 -0.465055
000080 b2 fa 1f c0 60 85 3d 3d 69 6d fb bb 4e 1a 11 be
       -2.4996762 0.046269774 -0.007672955 -0.1417019
000090 c3 c0 4d bf 4f 09 75 c0 e1 ed b6 bf 8a f2 ac be
       -0.80372256 -3.8286932 -1.4291345 -0.33778793
0000a0 a5 3b 28 be db 4f 62 be 77 61 01 c0 5a 81 0d 3e
       -0.16429003 -0.22100775 -2.0215738 0.13818875
0000b0 a9 b6 bb bf f3 6b dc 3e 5f d8 a7 be 38 44 3d bf
       -1.4665118 0.4305111 -0.32782266 -0.7393222
0000c0 a2 8a 79 be 9c b2 95 3f 96 e0 fa 3f 19 15 2f 3e
       -0.2436929 1.1695132 1.9599788 0.17097892
0000d0 19 86 f6 bd 92 78 24 be 06 70 28 c0 c1 2e 49 3f
       -0.12037296 -0.16061619 -2.6318374 0.78586966
0000e0 04 b0 d9 be 88 f8 66 be 68 3c ae be e3 27 94 be
       -0.42517102 -0.22555745 -0.3403046 -0.2893668
0000f0 b8 96 1b bf 00 5f 8c 3f d7 5a 49 bf df 80 ad 3e
       -0.60776854 1.0966492 -0.78654236 0.33887383
000100 c4 b3 20 bf 16 1e ea 3e 71 69 b2 bd a7 58 9f 3e
       -0.627743 0.4572608 -0.087115176 0.31122324
000110 0e 3c 92 3e dc 84 30 be ca 74 cc be 8c 23 fa 3e
       0.28561443 -0.17238182 -0.39932853 0.48855245
000120 17 a4 89 3e f5 ff 58 c0 95 54 f4 3f e2 f2 8f be
       0.26883003 -3.3906224 1.9088312 -0.28114992
000130 d0 d5 22 be 76 83 4b 3f 48 b0 4c 3e fa 4b 92 3c
       -0.15901875 0.7949747 0.19989121 0.017858494
000140 fc 87 a8 bd 6a aa 59 3b 88 eb 0b be a4 e5 0a be
       -0.08229062 0.0033213147 -0.13664067 -0.13564163
000150 91 c9 63 3d c8 47 fe be 43 d9 2b 3e 5e d9 a9 3d
       0.05561215 -0.4966414 0.16782098 0.082934126
000160 10 cd ef bd 04 6b 86 bd ed 36 a0 3e bd 5e d3 3e
       -0.117090344 -0.0656338 0.31291905 0.41283217
000170 4b b7 a4 3e 1e 2c 33 be 14 80 76 be 94 9c 02 3e
       0.3217109 -0.17497298 -0.24072295 0.12755042
000180 9b b4 9a 3e 4d 56 5e 3f 52 81 15 be 95 d4 6c be
       0.30215916 0.86850435 -0.14600113 -0.23127969
000190 fe f1 91 be a3 64 38 be 1d 96 11 40 0a 55 d6 bf
       -0.28504938 -0.1800714 2.2747872 -1.6744702
0001a0 5a f9 11 40 9f 62 05 bd 3f d4 37 3e 17 88 d3 bd
       2.2808442 -0.032564756 0.17952059 -0.103286915
0001b0 ef 40 4d 3f 40 7b bb bf 8a 2a 37 3f c0 84 69 3d
       0.80177206 -1.4646988 0.71549284 0.057011366
0001c0 d9 e4 6d 3e 69 27 b7 3e 4f 44 95 be a9 13 6e c0
       0.2323183 0.35772255 -0.29153678 -3.71995
0001d0 ca a0 03 bf f6 18 f6 3d 0b a9 e3 bd 08 2b af 3e
       -0.5141722 0.1201648 -0.11116227 0.34212518
0001e0 96 3b a7 3f 91 f0 27 3f 9e 1d 8b 3f e9 e1 11 be
       1.3065059 0.6560145 1.0868413 -0.14246334
0001f0 b3 41 0d be 18 d2 85 be 20 72 db 3f 99 a2 bc 3e
       -0.13794594 -0.2613685 1.7144203 0.36842802
000200 5d 55 38 be ae fa 9e be e1 20 61 be ce 64 4b be
       -0.18001314 -0.31050628 -0.21985199 -0.19862673
000210 f7 16 b6 3f 1e 4d 9f 3e 44 7e 94 bf dc 3a 25 bf
       1.4225758 0.31113523 -1.1601033 -0.6454294
000220 0d 3e b0 be 35 02 0c bf 2a e4 ef 3f a7 e8 b9 bf
       -0.3442234 -0.5469087 1.8741505 -1.4524125
000230 75 26 21 40 5e 5c 35 be 9b 84 da bc 6f 80 0d bf
       2.5179722 -0.17711017 -0.02667456 -0.552741
000240 da 61 a6 3f ca f4 3f 3f d2 58 d7 3d 3e dc af bd
       1.2998612 0.74982893 0.10514988 -0.0858693
000250 6e af ef 3c 4c 36 3e 3e 5b 77 56 3f ea f5 81 c0
       0.029258456 0.185754 0.8377587 -4.061269
000260 09 92 68 3d 22 27 94 be 4a 11 b7 bd d4 94 47 be
       0.056779895 -0.28936106 -0.089388445 -0.19490367
000270 4b f1 a0 bf 6a b6 6f 3f e5 79 77 3f f0 1c 28 be
       -1.2573637 0.93637717 0.9667037 -0.16417289
000280 7e f9 20 3c b9 80 9d 3e e6 a2 39 be aa 50 73 c0
       0.009825109 0.3076227 -0.18128547 -3.8017983
000290 50 15 1e 40 40 86 a9 3d a7 49 6a bc 35 78 3f 3b
       2.4700508 0.08277559 -0.014299787 0.0029215936
0002a0 36 f2 85 c0 58 a5 e2 3d 55 4e 53 3f e4 c6 d1 bb
       -4.185817 0.11066693 0.825414 -0.0064018834
0002b0 9c 10 8f be a8 be 99 be 8d 63 ee 3f 96 28 95 3f
       -0.2794236 -0.30028272 1.862413 1.1653011
0002c0 83 93 7d 3f 62 1b 2b be f7 f8 61 3c c6 e0 05 bf
       0.9905321 -0.16709664 0.013792268 -0.522961
0002d0 8f d8 86 3f 78 0f 2d 3f 1b 1e 95 3d c6 09 09 bf
       1.0534838 0.6760173 0.07281133 -0.5353054
0002e0 b6 47 b2 be 2e 91 6c be 62 21 ae bc ec 92 89 be
       -0.34820336 -0.23102257 -0.021256153 -0.26869905
0002f0 f2 63 da 3e 88 d4 02 3e 79 dd 56 be 50 2b 8a 3e
       0.42654377 0.12776387 -0.20982923 0.2698617
000300 8b 17 14 3f ca 14 0b c0 00 c8 f2 3f 9f 74 cd 3d
       0.57848424 -2.1731439 1.8967285 0.10032009
000310 0c 63 a6 be 95 f0 e7 3e 73 bb 36 bd c6 ab ba 3e
       -0.32497442 0.45300737 -0.04461236 0.36459178
000320 06 ca 4d 40 be e5 c3 bd 0a 40 b2 be 7b de 3a 3f
       3.2154555 -0.09565304 -0.34814483 0.7299573
000330 f2 a9 68 bf ba 51 44 3f a7 ea 6b 40 e4 d7 25 bd
       -0.90884316 0.76687205 3.686197 -0.040489092
000340 bc 6a 65 3d a1 50 1d bf bb ab 77 bf 28 1c 7f c0
       0.056009993 -0.61451155 -0.96746415 -3.9860935
000350 4a db 57 3f 7d 7f 38 be a8 63 47 be 73 eb cb be
       0.84318984 -0.18017383 -0.1947161 -0.3982807
000360 a8 3e 96 3e b0 fb 81 3f 3d b8 e0 be a9 e2 80 3e
       0.29344678 1.0154934 -0.43890563 0.25172928
000370 60 fd 28 be 23 dd bb 3e 60 2f 17 3f 3b 46 9d be
       -0.16502905 0.3669215 0.59056664 -0.30717644
000380 6c 4c 27 be 14 57 34 bd de 0d a1 be 3a cd c7 3e
       -0.16337746 -0.044028357 -0.31455892 0.39023763
000390 69 5f 37 c0 f4 94 80 be d1 8b a0 3e 49 2a 3c 3d
       -2.8651984 -0.25113642 0.3135667 0.045938764
0003a0 47 1b 5b bd 59 fd 18 3e 31 71 19 bf 16 6d 4b 3f
       -0.05349281 0.14940394 -0.5993834 0.79463327
0003b0 82 b6 24 be d2 30 52 be c8 02 2f be 3d c1 13 bf
       -0.16085246 -0.20526436 -0.17090905 -0.57716733
0003c0 8a eb 4c 3f c4 b9 ec 3e cc b6 d8 3f 09 8b 95 be
       0.80046904 0.46235478 1.6930785 -0.29207638
0003d0 ec 0c 71 be 00 fc 97 3e 50 2e f1 bf 9f f6 6e 3e
       -0.23540086 0.29684448 -1.8842258 0.23336266
0003e0 fe 04 39 40 6a e8 e7 bc 60 be 09 be db 4d 1f be
       2.8909297 -0.028309066 -0.13451529 -0.15557043
0003f0 70 31 dc 3e 82 4a 9b 3f d3 93 2e bf 47 ea 79 3e
       0.43006468 1.2132113 -0.6819431 0.24405776

layer1.bias f4 [512]
000000 61 09 0d be 0b 84 eb bd 38 2d cb be e7 a3 b2 3e
       -0.13773109 -0.114997946 -0.39682937 0.34890673
000010 ac 25 93 bd ca 66 9a bc 2a 36 e0 be 59 f2 22 be
       -0.0718492 -0.018847842 -0.43791324 -0.15912761
000020 f0 38 fb be 6a a7 a2 be c3 79 4e 3d dc ff 73 be
       -0.49066877 -0.31768352 0.05040909 -0.23828071
000030 10 9c 81 bd b4 70 f6 bd e8 a7 c0 be e7 0d a7 be
       -0.06328595 -0.12033215 -0.37628102 -0.32627794
000040 e8 dc 5b be ae 56 d6 be 35 02 36 be 68 f5 71 3e
       -0.21470988 -0.41863006 -0.1777428 0.23628771
000050 45 31 1b 3c db 0e 27 bf f0 12 49 be 59 e7 40 3d
       0.009472196 -0.6525704 -0.1963613 0.04709563
000060 43 54 95 be af 51 01 bf 36 ab 91 be 10 bd c6 3d
       -0.2916585 -0.50515264 -0.28450936 0.097040296
000070 7b dc eb 3d 66 29 07 be 46 8b c7 be 34 3e 47 be
       0.11516663 -0.13199386 -0.38973445 -0.19457322
000080 a6 b1 a8 3e 91 57 37 be 94 c3 d8 ba a0 69 3e be
       0.32948035 -0.17904498 -0.0016537779 -0.1859498
000090 4c ed 0e bf 52 82 1f be 0b 28 c9 bd c8 6c fc 3d
       -0.55830836 -0.15577057 -0.09822091 0.12325436
0000a0 5d 02 fb be 33 cd 72 3e 0b e2 f6 bd 82 9f 08 3e
       -0.4902524 0.2371109 -0.12054833 0.13342097
0000b0 7a 40 2c 3d 2f 1d b4 be 50 a9 ad be d1 79 bb be
       0.042053677 -0.35178515 -0.33918238 -0.36616376
0000c0 c6 be e3 be d2 bb 56 bd 87 9c 69 3c fa 98 5b be
       -0.44481486 -0.052425213 0.01425851 -0.21445075
0000d0 0c 01 b5 3e 68 8d 03 bf 45 42 31 be 56 01 46 bd
       0.3535236 -0.51387644 -0.17310436 -0.048341118
0000e0 52 71 41 be c3 ec f6 3e db ed 63 be eb 87 ce be
       -0.18890885 0.4822751 -0.22258703 -0.40338072
0000f0 dc e4 f9 be b0 ec b1 be b2 e1 b1 3d c6 92 26 3b
       -0.48807418 -0.3475089 0.08685626 0.0025417074
000100 b7 fd 91 be 2d 26 49 3e 7b ac 0f 3e 9f c9 43 3a
       -0.28513882 0.19643469 0.1403064 0.00074687036
000110 d3 f1 a8 3e c6 ca 6b be 16 19 4d be 98 20 66 3d
       0.32996997 -0.2302657 -0.20029101 0.056183428
000120 db f6 73 bd 42 04 3d bc 55 1f 00 3f 61 96 ef be
       -0.05956159 -0.01153666 0.5004781 -0.46794418
000130 5d 84 8d be f3 7e 94 be 2b e1 c0 be eb d1 9f be
       -0.27640048 -0.29003105 -0.3767179 -0.31214842
000140 ec 0e 0b 3e bc 2b a5 bd 1b 93 9c 3e d2 99 b2 be
       0.13579911 -0.08064982 0.30580983 -0.3488298
000150 44 6b 38 bd e7 f2 af be ac 9e 59 be 82 06 fe 3c
       -0.04502417 -0.34365007 -0.21251935 0.031008963
000160 de f6 49 be d4 b4 0d bf c8 7d b3 be c5 c4 5a be
       -0.19723079 -0.55354047 -0.350569 -0.21364124
000170 b2 44 4c be 3c 2c 4a be 70 3f 05 bf e4 0d a0 bd
       -0.1994808 -0.19743437 -0.5204992 -0.078151494
000180 5b 78 c4 be 27 01 02 be 49 dc 99 be 03 bf 98 be
       -0.38373074 -0.12695752 -0.30050877 -0.2983323
000190 14 cf 84 be e5 b4 56 3e 2a 9b 6c bd 02 fb 18 be
       -0.25939238 0.20967443 -0.057765163 -0.14939502
0001a0 e2 87 85 3c aa c6 02 bf a7 33 ce 3e b1 bf db be
       0.016300146 -0.5108439 0.40273783 -0.42919686
0001b0 cd b6 8a 3e 9b 1a de be e0 e1 d3 bd f2 62 92 3b
       0.2709259 -0.43379673 -0.103458166 0.0044673616
0001c0 b4 7d d9 be c2 ab 80 be 85 ab af be 2e 46 41 be
       -0.42478716 -0.2513104 -0.34310547 -0.18874428
0001d0 6b 3c cf 3d b6 e3 00 3f 43 94 af be e2 f0 a7 3d
       0.10118946 0.5034746 -0.34292802 0.082002416
0001e0 4b 8c ce bc 81 d4 01 bf 41 fe 02 bf e4 b0 3c 3d
       -0.025213381 -0.5071488 -0.5116921 0.046067134
0001f0 c9 08 41 be 29 0f 5c be eb 7e a1 be e1 c5 d4 bd
       -0.18851008 -0.21490158 -0.31542143 -0.10389305
000200 fc 12 77 be 48 01 19 be 53 59 ca bd 8e 62 d1 bd
       -0.24128336 -0.14941895 -0.098803185 -0.10223876
000210 67 06 a3 be 8e 23 6b 3e 29 7a d6 be 13 5c 82 be
       -0.31840822 0.22962782 -0.41890076 -0.25460872
000220 e0 81 b8 3d 49 37 08 be db dc c3 be b4 22 ee bd
       0.09009147 -0.1330234 -0.38254437 -0.11627713
000230 6f 7a a2 be 59 1b c5 be 44 ce 17 bf 07 ba 40 be
       -0.31734034 -0.38497427 -0.5929911 -0.18820964
000240 dc 76 05 bf 3f fb a6 bd e2 8d b4 bb 03 56 93 be
       -0.5213449 -0.0815339 -0.005510078 -0.2877656
000250 9e 39 e4 bd c3 2b 59 be 56 ff ba 3e 4d 6b fe 3d
       -0.11143802 -0.212081 0.3652293 0.1242281
000260 c9 6a 71 be 55 96 a2 be 3e 1d 86 be 62 cb 5b be
       -0.23575892 -0.3175532 -0.26194185 -0.21464303
000270 29 34 2e 3e 9b b8 10 be 75 4c 92 3e 21 15 66 3e
       0.17012085 -0.14132921 0.28573957 0.22468998
000280 0e 4d a7 be 76 48 9e 3e 37 03 8f 3b e7 48 46 be
       -0.32675976 0.30914658 0.004364397 -0.19363748
000290 c1 7c 45 be 8c f9 71 be d2 ee 44 be 44 85 2b be
       -0.19285871 -0.23630351 -0.19231728 -0.16750056
0002a0 d3 48 c4 bc 1c 5b 45 3d 4a c4 7b be ff 61 01 bd
       -0.023960507 0.04818259 -0.24586597 -0.031587597
0002b0 12 ac a6 be 55 ec 96 bd 8c a9 07 bf 08 5d ea 3d
       -0.32553154 -0.073692955 -0.52993083 0.114435256
0002c0 16 b2 25 be a3 37 5e be 65 ac 9f bd 5f 06 80 3a
       -0.16181216 -0.21700911 -0.077965535 0.0009767524
0002d0 a6 92 8c bd 5e 53 1f be 45 37 21 3c dc 5e ee 3b
       -0.068639085 -0.15559146 0.009839837 0.0072744917
0002e0 84 56 67 be b5 f0 79 bc 82 eb 00 bf 42 61 4a be
       -0.22591597 -0.015255143 -0.50359356 -0.19763663
0002f0 e9 09 f3 be fb c4 3f bd c3 a5 b7 be 12 31 02 3d
       -0.47468498 -0.046818715 -0.35868654 0.03178508
000300 aa 52 17 3e 26 02 27 3d 83 20 47 3e 96 7e f6 be
       0.14777628 0.040773533 0.19445996 -0.48143452
000310 f4 3e 07 bf 6c 20 a0 bd b6 fc af be a4 81 fb bd
       -0.52830434 -0.07818684 -0.3437249 -0.12280586
000320 ab 49 20 bf 32 ad c2 3c 79 23 ae be 08 be e8 be
       -0.6261241 0.023764227 -0.34011438 -0.45457482
000330 14 b1 ca 3c 3d 61 63 be b6 71 f1 bd ca 64 72 3d
       0.02474264 -0.22205062 -0.11789267 0.05917815
000340 25 06 03 3f b9 29 39 be 90 ad 06 3e 0f 07 9a be
       0.5118125 -0.18082322 0.13152146 -0.3008351
000350 cd ec 90 be 80 ff e8 be 8b 60 43 be 20 0a 54 3e
       -0.28305665 -0.4550743 -0.19079797 0.20706987
000360 73 44 a2 be cd 2c 01 bf 23 b6 bf be e2 ba 19 bf
       -0.31692848 -0.50458986 -0.37443647 -0.60050786
000370 94 93 4d 3d 11 65 c8 be b4 29 e4 be 5f 1d 2d be
       0.05018957 -0.39139608 -0.44563067 -0.16905735
000380 f2 2e 03 bf 76 b3 07 bf ed 63 f5 be 1a 48 f0 bc
       -0.5124351 -0.5300821 -0.479278 -0.029331256
000390 42 ef c0 be a3 55 db bd 5c 6e d4 3e 59 0c f5 be
       -0.3768254 -0.10709693 0.41490448 -0.47860983
0003a0 c8 95 30 bf 18 12 8c bd 9b 6a 46 ba 9b c6 0c bf
       -0.6897855 -0.068393886 -0.0007568986 -0.5499055
0003b0 18 8f ad 3e cb db a5 3d ed c8 99 be 15 02 99 be
       0.33898234 0.08098563 -0.30036107 -0.298844
0003c0 6d 5f 1c 3e ab 59 9f be 2c 45 32 bc ac 5e 2e be
       0.15270777 -0.311231 -0.01088075 -0.17028302
0003d0 3c 77 c2 3d 4c ff 90 be 89 81 be be 4a ed 92 3e
       0.094953984 -0.28319776 -0.37208202 0.28696662
0003e0 26 59 33 bf de 68 bb be e0 28 b6 3e 5f 61 2a 3e
       -0.70057905 -0.36603445 0.3557806 0.16638707
0003f0 a7 15 dc be 6f 13 1c bf 90 da 18 3d 48 1b a1 bd
       -0.4298527 -0.60967153 0.037317812 -0.078665316

layer2.weight f4 [256, 512]
000000 90 15 45 3c 14 26 87 bc 0a 93 57 bc 2b cb 7d 3c
       0.012029067 -0.01649765 -0.013157615 0.015490334
000010 24 90 06 bd f9 d2 a6 bc 4f 2a ae 3c 4c e0 f3 bc
       -0.032852307 -0.020364271 0.021260409 -0.029770039
000020 11 3e ea 3c 08 b8 a3 3b 04 e3 58 bc 23 e8 ff 3b
       0.028594049 0.0049963035 -0.0132377185 0.0078096553
000030 5c f7 fd 3c 91 1d d7 3c 39 d0 ec bb 99 39 1f 3b
       0.03100174 0.026259216 -0.0072269705 0.0024295805
000040 a4 59 7e bc 70 60 0a 3a 10 c2 0a bd 22 5b 9f bc
       -0.015524302 0.00052786525 -0.03387648 -0.019452635
000050 b9 9c 82 bc 6c 4a fc bc df 7a 92 bc fc a6 45 bb
       -0.015943872 -0.030797206 -0.017880855 -0.0030159345
000060 33 7c 25 bd 66 10 ac 3b c4 78 45 bd 17 74 21 bc
       -0.04040165 0.0052509783 -0.048210874 -0.009854338
000070 a2 ea c9 bc db 08 28 bd c7 6c 39 bc 05 fd 91 3c
       -0.024648014 -0.04102407 -0.011317438 0.017820844
000080 ca 08 f4 bc e8 e1 ce bc cc 7f fc bc cc 30 1d bd
       -0.029789347 -0.025254205 -0.030822657 -0.038376614
000090 78 4f 49 b9 28 81 fa 3c 24 88 f0 bc f4 4e 32 3c
       -0.00019198458 0.030579165 -0.029361792 0.010883082
0000a0 d2 97 db 3b 66 35 69 bd 14 82 35 bd ef db ac 3c
       0.006701448 -0.05693569 -0.044313505 0.021100966
0000b0 98 11 9f 3c 5c 8d 75 bc 14 81 0d bc 2d 5f af 3c
       0.019417569 -0.014987316 -0.008636732 0.021407688
0000c0 50 38 04 bc 08 a9 88 3c 78 31 83 3c 84 7a d6 3c
       -0.008070067 0.016682163 0.0160148 0.026181467
0000d0 08 cd 03 3c 70 97 b5 bc c4 26 a6 bb 7d 5d d7 bc
       0.008044489 -0.022166938 -0.005070539 -0.026289696
0000e0 3c 16 8f 3c 23 b5 ff 3b d8 5f 6b bb 86 b0 cf 3c
       0.017466657 0.0078035756 -0.0035915282 0.025352728
0000f0 a9 12 ad 3c 65 97 a3 3b 38 6b 0f 3d cf f3 33 3c
       0.021127062 0.004992413 0.03501436 0.0109834215
000100 bc 27 0b bd 36 98 6a 3c 73 5f a5 bc f4 2f 47 bd
       -0.03397344 0.0143185165 -0.020187115 -0.048629716
000110 42 ec a3 ba 2c 04 83 bb aa 58 dd bc 4a 0a 7a bc
       -0.0012506323 -0.0039983 -0.027019817 -0.015261242
000120 33 32 24 bc 22 ff 4b bd ca 65 00 bc 26 fb ba 3c
       -0.010021734 -0.04980386 -0.007836768 0.022824835
000130 c8 c0 e3 3c 7d 9e d8 bc b4 0f b9 bb d9 d7 3e 3c
       0.027801886 -0.02644276 -0.005647624 0.011648142
000140 74 5c 41 bc 66 1d c7 bb ec 45 67 bc b4 4f 05 3d
       -0.011801828 -0.0060765026 -0.014115792 0.032546714
000150 d2 e4 d5 3c 59 6a 65 bd 78 bf cc 3c a2 16 dc 3b
       0.026110087 -0.056009624 0.024993643 0.006716565
000160 d1 b8 52 bc d0 8f ae bc 36 f1 5e 3c 05 ca d3 bc
       -0.0128614465 -0.02130881 0.013607314 -0.025853166
000170 60 c3 89 bc ba 4e 5b bc 2a 39 d4 3c 62 f9 78 b9
       -0.016816795 -0.013385469 0.025906164 -0.00023744025
000180 39 35 b5 bc 35 50 53 3c a7 1e dd bc bc 03 0a bc
       -0.022120105 0.012897541 -0.026992155 -0.008423742
000190 30 9b 1c 38 08 35 0a bc 04 a7 c7 bc 4b 96 ba bc
       3.7337828e-05 -0.008435495 -0.024371631 -0.022776743
0001a0 2a 8e 65 3c 30 4e ea bc 4c a2 07 3d 0e 9e 64 bc
       0.014010945 -0.028601736 0.033113763 -0.013953699
0001b0 bb 2b f0 3b 31 a0 14 3c 21 71 17 bd 09 cc d3 3c
       0.007329432 0.009071396 -0.036973123 0.025854127
0001c0 2e 6b 33 bd 72 c3 75 bc 08 1c 09 bd 98 3a b6 bb
       -0.043803386 -0.015000211 -0.033474 -0.005561184
0001d0 a4 c0 c9 bc 58 81 09 3a c5 c7 ae bb 1b ef 7b 3c
       -0.024627991 0.0005245409 -0.005333873 0.015376831
0001e0 c3 08 1c bd f7 a5 65 3c e0 72 f1 3b 93 56 19 bd
       -0.038094293 0.01401662 0.0073684305 -0.03743608
0001f0 e8 ec 0c 3c 46 25 98 3c 4a d3 25 3b 2d c3 12 bb
       0.008601405 0.01857246 0.002530294 -0.0022394166
000200 30 3c ef bb a3 29 56 bc 6a d3 3d bd 1e 65 4c bb
       -0.007300876 -0.01307145 -0.0463442 -0.00311882
000210 a0 68 0e bd 52 84 47 bc 51 0e 32 bd 3e 06 10 3d
       -0.034767747 -0.012177544 -0.043470684 0.035162203
000220 ab 29 e9 3c bc 37 8f 3a 81 7b e0 bc a0 b1 87 3b
       0.028462252 0.0010926644 -0.027402641 0.0041410476
000230 f1 9e d0 bc 42 24 ef bc b7 95 b9 3b b2 b2 ca 3c
       -0.025466414 -0.029192094 0.0056635994 0.024743412
000240 86 1c 23 bd fe c4 aa 3b d4 4b 96 bc e8 f5 f9 3a
       -0.039822124 0.0052114716 -0.018346705 0.0019070478
000250 f7 01 2c bd 0a 05 de bc 0f bf 90 bc e4 fb a6 bb
       -0.04199406 -0.027102012 -0.017669229 -0.0050959457
000260 8f 02 56 3b 6c f1 14 bd e3 2d b1 bc fd 12 54 3c
       0.0032655334 -0.03636305 -0.021628326 0.01294398
000270 08 ba 80 3c 40 d3 6d bc e0 e3 b3 bc fa 98 4f bc
       0.015713707 -0.014515698 -0.021959245 -0.01267075
000280 ee 1a 4b 3b b2 f8 24 bd b2 8e c3 3b cf fb 22 3c
       0.0030991393 -0.040276237 0.0059679383 0.009947731
000290 74 c9 ca bc 32 18 93 bc 39 d0 d6 3c fc 1a 78 bc
       -0.024754263 -0.017955873 0.026222335 -0.015143152
0002a0 9c 3a bb 3c 24 08 75 bc a8 4f 33 bc 78 2e ef 3b
       0.022855096 -0.014955554 -0.0109442845 0.0072992407
0002b0 c8 b7 05 3d b8 d7 e1 b9 f0 11 8c bc 6b c9 db b8
       0.03264597 -0.00043076067 -0.017098397 -0.00010480251
0002c0 26 9a 49 3b de 89 01 bc ba 11 1c 3c bc 8d e3 bb
       0.0030762046 -0.007906405 0.009525711 -0.0069443863
0002d0 e4 2d 4d bc c4 58 f0 3c 19 26 dd 3c 92 c4 c0 bb
       -0.012523148 0.029339202 0.026995705 -0.005882808
0002e0 a4 69 7b bc ff 92 12 bd 23 86 f9 3b b6 6c ef 3c
       -0.015345011 -0.035784718 0.0076148673 0.029226642
0002f0 ed 0c 94 bc 88 3f f3 3c 3b b0 be 3c 88 e3 01 bc
       -0.01807257 0.02969338 0.023277393 -0.007927783
000300 0c 74 4a bc a4 6e 8d bc 50 9f dc 3b 2c 2c 6f bd
       -0.012356769 -0.017264672 0.0067328587 -0.058391735
000310 f5 33 96 bc 5b c0 e2 3b 7c 0d a8 3c 90 dc 89 3c
       -0.018335322 0.006919903 0.020514242 0.016828805
000320 08 54 8b bc 5a 8e 2d bd f7 13 ae 3c c2 62 be bb
       -0.017007843 -0.042372085 0.021249754 -0.0058101127
000330 14 1a 03 3c 1f f8 6f bc 6a 7c 41 bc bc d6 00 3d
       0.008001823 -0.014646559 -0.011809448 0.031454787
000340 ad cb 01 bd 70 7b d7 3c 60 80 05 3d 3b cd a1 3c
       -0.03168838 0.026303977 0.03259313 0.019751182
000350 b8 45 78 3c 67 5d 96 bc 45 d4 e5 bc a1 ca 68 bd
       0.015153341 -0.018355085 -0.02805532 -0.056833867
000360 33 b6 76 3c ed 65 17 3c 58 b5 ab 3a 20 28 02 bc
       0.015058088 0.00924061 0.0013100309 -0.007944137
000370 da 5a f9 3c 14 a1 08 bc 7c b4 0d bd 65 2e 01 bd
       0.03043883 -0.008339185 -0.03459595 -0.031538386
000380 02 ce ce 3b 47 d1 52 3b d7 5b 1e 3b 8a 1c c2 3c
       0.006311179 0.0032168196 0.0024163628 0.02369525
000390 80 32 27 bc 44 0c 86 bc a6 a9 68 bd 52 85 c0 bc
       -0.010204911 -0.01636327 -0.056802414 -0.023501072
0003a0 66 dc df 3c 96 f8 2c bd 19 50 37 3c e4 8d 6a 3b
       0.027326774 -0.042229258 0.01118853 0.003579014
0003b0 0d 2f 1c bd 45 74 b5 bc ff 52 be bc 58 14 0d 3a
       -0.03813081 -0.022150168 -0.023232935 0.00053817546
0003c0 1a 56 fa 3c fa a2 b8 ba 60 52 83 bb 40 27 3d 3b
       0.030558635 -0.0014086657 -0.0040076226 0.0028862506
0003d0 12 b7 f0 bc 8c 90 06 bd 3c d4 fb bc fe 48 98 3c
       -0.02938417 -0.032852694 -0.03074085 0.018589493
0003e0 04 ed 81 bb c3 5c 15 bc 18 88 05 3d e6 42 3f bc
       -0.003965022 -0.009116354 0.032600492 -0.011673665
0003f0 d6 53 ec 3c f0 1b 23 bc 64 a6 8a 3c 18 ae 5b bc
       0.02884857 -0.009955391 0.016925044 -0.013408206

layer2.bias f4 [256]
000000 63 7b 93 3b 26 f7 38 bd 05 6b 53 bd 0e fb 9f bc
       0.004500793 -0.045157574 -0.051615734 -0.019528892
000010 9a 06 20 b9 22 ec e6 bc 31 e3 e7 bb a6 fd ef 3b
       -0.00015261248 -0.028188769 -0.007076644 0.0073239384
000020 64 2b 86 bd 27 1f 9c bb 80 aa 77 3b 3e 99 2a 3c
       -0.06551245 -0.004764456 0.0037790835 0.010412512
000030 31 8b 85 ba fe 21 50 be ce 17 03 bd 70 ac 44 bd
       -0.0010188577 -0.20325467 -0.032005124 -0.04801601
000040 c0 b1 0b bd 98 d7 ca bc 3c 71 27 bc 1f d0 ab bc
       -0.034105062 -0.024761006 -0.010219868 -0.020973263
000050 04 98 f6 bc 58 f7 89 38 84 dc 23 bd 74 53 96 be
       -0.030101784 6.5787404e-05 -0.040005222 -0.29360545
000060 cc 68 3c bd df e6 27 bd 27 d0 93 3c 3a c7 39 bd
       -0.04599838 -0.04099166 0.01804359 -0.045356013
000070 d0 75 08 bc 07 d4 b7 bd 0c d2 0f bd 1c b4 b7 bc
       -0.00832887 -0.08975988 -0.035112426 -0.02242475
000080 c0 48 92 bb fc a1 c8 3a bb 69 6d 3e c9 84 94 bb
       -0.004464239 0.0015307064 0.23184864 -0.004532431
000090 9c 8f 69 3c d0 44 01 be 09 e1 11 3b 4d 6c 35 bd
       0.014255431 -0.12623906 0.0022259376 -0.044292737
0000a0 65 ea 5d bd fd 60 1e bb 52 e5 0a be fb f6 5d 3b
       -0.054178614 -0.0024166696 -0.13564041 0.0033869136
0000b0 44 44 c1 bc 37 b3 a1 bc 2e 4e 2b 3c 19 66 30 3d
       -0.023592122 -0.019738777 0.010455651 0.043066118
0000c0 0b a9 b1 bc 2c 02 7f bd 41 44 02 be 43 68 3e be
       -0.021687051 -0.06225793 -0.1272135 -0.1859446
0000d0 33 69 24 3c 0c b0 7c bd 3e f6 cc bc 40 4d ef bb
       0.010034847 -0.06169133 -0.025019761 -0.00730291
0000e0 b5 a8 d3 3b c6 c6 24 bd 34 6b 7a bd 15 a8 6b bd
       0.0064593204 -0.040228628 -0.061137393 -0.057533342
0000f0 5c 63 7a bc e2 e8 a7 bc 70 a4 df bc 6b c7 6e bd
       -0.015282478 -0.02049679 -0.02730009 -0.05829565
000100 ff 34 39 be 13 be a7 be dd 58 87 3d c0 b0 85 bd
       -0.18086623 -0.32762203 0.06608746 -0.06527853
000110 55 42 80 bc 63 62 77 3b cc 48 8d 3c 50 0e 8b bb
       -0.01565663 0.0037747852 0.017246626 -0.0042436495
000120 b4 79 c8 bc 85 f2 c1 3e 81 61 b9 3b 9c 06 0d bc
       -0.024472095 0.3788034 0.0056573753 -0.008607533
000130 f0 3b c2 be 7a b6 b6 3e bf f6 a9 bd c2 78 c8 bc
       -0.37936354 0.35686094 -0.08299016 -0.024471644
000140 80 8b 6d bc 2e 42 21 be 1e 20 c8 bc f4 43 c3 bc
       -0.014498591 -0.15747902 -0.024429377 -0.023836114
000150 72 62 95 3d 0c 27 29 bd ad 00 84 be 0c e1 ef bd
       0.072941676 -0.041297004 -0.25781766 -0.11712846
000160 78 3c 88 bc 98 dd bb bc 5f 55 2a bd a5 c2 9d bc
       -0.016630396 -0.022932813 -0.041585322 -0.019257853
000170 1e 3e 4b 3c 4e 6d ce bc f4 e6 fa bc 70 6c 35 bf
       0.012404947 -0.025198605 -0.030627705 -0.7086859
000180 0e 3c 31 bd ed b3 32 be 10 b0 93 3b 66 d1 64 bd
       -0.043270163 -0.17451449 0.0045070723 -0.05586376
000190 e7 9c bf 3e d0 0d 0d 3c 24 a6 03 3c 24 8c 72 bc
       0.37424394 0.00860925 0.0080352165 -0.01480392
0001a0 d0 0f 86 bc 57 bb d7 bc 1a 1e 8e 3d 3f 57 6e bc
       -0.016364962 -0.026334448 0.06939335 -0.014547168
0001b0 b6 f8 21 bd e0 c0 68 3d 54 ee 06 be 3f cf a0 39
       -0.03954383 0.056824565 -0.13176852 0.00030671988
0001c0 96 db 3c bd b5 76 65 bd cc 5f 92 bc 22 4a d8 bc
       -0.04610785 -0.05602141 -0.017867945 -0.026402537
0001d0 ac 92 7f 3c 1a 7e 17 be a0 3f eb be a3 58 f8 3d
       0.015598934 -0.14794198 -0.4594698 0.12126281
0001e0 86 26 a4 bc b1 28 37 bd e0 ed 45 3e c0 c7 e4 bc
       -0.0200379 -0.04471654 0.19329023 -0.02792728
0001f0 da 4b 5e 3e b0 c4 0d 3b 54 df 11 3e a5 a2 3d 3e
       0.21708623 0.0021632127 0.14245349 0.18519075
000200 ce 72 5e bc 96 20 2d bd 32 44 fe bc d2 98 f0 bc
       -0.013577176 -0.042267404 -0.031038377 -0.029369745
000210 66 5f 31 bd 66 1a cd bc cf 61 52 bc f6 0e 84 bd
       -0.04330387 -0.025037002 -0.012840702 -0.06448166
000220 9b 8f b0 bd 70 60 02 bd eb 56 1b bd c7 6b 67 bd
       -0.086211406 -0.03183025 -0.03792469 -0.05649927
000230 f0 56 45 bd 3e 62 af ba 10 b6 44 bd 38 d9 26 3e
       -0.048178613 -0.0013380719 -0.04802519 0.162938
000240 5f 96 6f be e8 bd 8d 3e 4e 00 49 3d 8c 7d 31 bd
       -0.23397206 0.2768395 0.049072556 -0.04333262
000250 6e 67 93 bc fa 85 cf bd 34 2b 2a bd a4 77 0c bd
       -0.017993655 -0.10132976 -0.041545108 -0.034293786
000260 0a c6 6c bd 23 89 37 bd dd 20 18 3e b1 70 c5 3e
       -0.057806052 -0.04480852 0.14856286 0.3856254
000270 30 86 f6 3b 03 7f 6c bd 60 43 8a 3e 75 c4 27 bd
       0.0075233206 -0.057738315 0.27004528 -0.04095884
000280 66 77 ac 3d 2b 92 3d 3c 54 6c 67 bd f6 9e a1 bc
       0.08421211 0.011570494 -0.056499794 -0.019729119
000290 44 a2 25 bd 5c 91 74 bc f5 c3 37 bd 2a a9 72 bd
       -0.04043795 -0.0149272345 -0.044864614 -0.05924336
0002a0 53 50 7b 3c 02 89 4b bd 41 78 79 be 54 b2 df be
       0.015338975 -0.049691208 -0.2436228 -0.4369074
0002b0 f5 1c 82 bc 48 a1 3b bd ac 4e de bd 9a 38 2a 3c
       -0.015882948 -0.045808107 -0.10854849 0.010389471
0002c0 07 c2 8c 3e e8 d0 09 bd 2e f2 b7 bc 36 2c bd bd
       0.2749178 -0.033646494 -0.022454347 -0.09236948
0002d0 4d df 19 3e e3 fb 70 3c 88 97 62 3b b4 24 83 3d
       0.15026589 0.014708492 0.0034575183 0.06403485
0002e0 51 78 24 bc 48 8a a0 bc 6b 36 5b bd d7 86 3d bd
       -0.010038451 -0.019597188 -0.053518694 -0.04627117
0002f0 32 8e 04 bd 24 91 6e bd 34 0f 23 bd 19 29 50 bc
       -0.03236217 -0.058243886 -0.03980942 -0.012705111
000300 8b 72 60 bd 18 48 1b bd bf e1 5b bc bc c4 49 bd
       -0.054796737 -0.03791055 -0.013420521 -0.049259886
000310 b1 b1 2b bd e0 d4 8f bd 2f 0d 5b bd df 4f 34 bd
       -0.041917507 -0.070230246 -0.05347937 -0.044021484
000320 44 f3 ae bb e2 ce 9a bc 58 ee 8a bc ab f9 da bc
       -0.005339058 -0.018897478 -0.016959354 -0.02673038
000330 fe ba 02 bb af a6 e7 bc 14 55 0c bc 4c 91 05 3c
       -0.0019947882 -0.028277723 -0.008565206 0.008152317
000340 60 6d 0d bd 19 bc bd be 76 c5 3c 3c d0 a2 1d bd
       -0.034528136 -0.3705757 0.011521688 -0.03848535
000350 00 51 16 be 16 63 c1 bc fc 53 58 bd 82 2f c3 bb
       -0.14679337 -0.023606818 -0.05281447 -0.005956591
000360 9b 89 7d 3a 32 00 12 bd f0 10 33 bd 38 6c 34 3c
       0.0009671689 -0.035644718 -0.043717325 0.0110121295
000370 9e da 24 bd f3 bf 96 be 61 7d 36 bd e0 15 2a bd
       -0.040247552 -0.2944332 -0.044553164 -0.041524768
000380 44 25 aa 3b 86 05 5b bd 19 d6 18 bd 48 83 4a bd
       0.0051924307 -0.053472064 -0.037313554 -0.049441606
000390 9c b3 e1 bc 84 d6 1b bc 41 c0 2e bd ee fa 23 bd
       -0.027551465 -0.009511594 -0.042663816 -0.040034227
0003a0 63 66 5a bd ca 84 7c bd 02 63 cb 3b 90 65 53 bd
       -0.0533203 -0.061650075 0.006206871 -0.05161053
0003b0 30 38 1d bd 24 cb f8 bc 5c bc 20 bd 16 8c 3a be
       -0.038383663 -0.030370302 -0.039242133 -0.18217501
0003c0 6c 5e cf 3d 5f 9e d4 be bc 24 ca 3e 59 7a ab be
       0.101254314 -0.41527078 0.3948115 -0.3349178
0003d0 f1 b7 b7 bc 1f 8d 6a bd 87 44 f7 3d ed fb 34 be
       -0.022426577 -0.05726349 0.120736174 -0.17674227
0003e0 0b 79 ca be a2 99 e4 bd a4 73 9d bc 6c 53 86 3c
       -0.39545473 -0.11162116 -0.01922018 0.0163972
0003f0 e4 cd 19 bc f8 82 07 bd 05 e7 5e bb 42 e9 30 bd
       -0.009387467 -0.033083886 -0.003401221 -0.043191202

layer3.weight f4 [128, 256]
000000 8e c3 3b 3d 8e 73 5f bd 78 84 74 3c 92 b5 d4 bc
       0.045840792 -0.05455356 0.014924161 -0.025965486
000010 08 e0 3c bd 59 a2 38 bb 59 42 52 bd 6b 17 f1 3c
       -0.04611209 -0.0028172939 -0.051332805 0.029430112
000020 b1 35 6f 3d 94 34 9e 3c 21 fc 2f 3d 74 f6 48 bd
       0.058400813 0.01931218 0.04296506 -0.04906316
000030 83 0d 56 bd 1f f2 2e be 74 9a 77 bc 6d 67 30 3c
       -0.05225898 -0.1708455 -0.015112508 0.010766846
000040 e0 fa 21 3d 78 69 2a bd 34 1d 0e 3d 44 ee f2 bc
       0.039545894 -0.04160449 0.03469582 -0.02965463
000050 7c 25 f7 ba ca 12 f9 bc 4b 7b a7 3c b0 4c ee 3d
       -0.0018855776 -0.030404467 0.020444533 0.11635721
000060 26 e1 b7 bc 60 38 00 3d 4a 10 af 3c a1 17 d1 bc
       -0.022446226 0.031303763 0.021370072 -0.025523962
000070 8c 03 02 bd b5 80 53 3d e5 b8 5e bd 48 a0 4b 3d
       -0.031741664 0.051636416 -0.054375548 0.049713403
000080 0a 38 10 bd ba a8 62 bd 2e e0 a0 3d e5 75 be bc
       -0.035209693 -0.05533669 0.07855259 -0.023249576
000090 c4 02 0a 3d 9a 1e ec bd ec 3c 6c bc 14 77 c3 3c
       0.033694044 -0.11529274 -0.014418822 0.023860492
0000a0 da 3f 1d bd 56 60 62 bd c6 b1 14 bf 30 31 b3 3c
       -0.03839097 -0.055267654 -0.5808376 0.02187404
0000b0 84 a8 b3 3c c5 da d9 bc f0 25 b3 bc 08 4f 37 3d
       0.02193094 -0.026593575 -0.021868676 0.044753104
0000c0 14 09 07 3d c7 1c 96 bc fb c6 63 bc 1f 3d ad bb
       0.032967642 -0.018324269 -0.013902421 -0.005286827
0000d0 f5 f6 29 3d 9b b3 57 bd 53 a0 58 3d a7 0f ad b9
       0.041495282 -0.05266152 0.052887272 -0.00033008793
0000e0 26 1e 45 3d 24 d2 b8 bc ba 74 72 3c e4 57 01 bd
       0.048124455 -0.02256114 0.014798338 -0.03157796
0000f0 32 85 40 bd e4 4a e1 3c 34 23 0c 3c 01 bf e6 3a
       -0.047002025 0.027501531 0.008553315 0.0017604531
000100 b6 a5 94 be 98 3d 39 bd 2a 89 ce be 8d 65 a8 3c
       -0.29032677 -0.045224756 -0.40339023 0.020556236
000110 b3 82 3b bd cf 18 1e bd bc 57 04 3d 2b de 2f 3d
       -0.04577894 -0.038597878 0.032310233 0.042936485
000120 30 f1 84 3c 02 e9 a5 3d 8c 8a 84 3c 6c 1f 0d 3d
       0.016228288 0.08101083 0.016179346 0.034453794
000130 77 ef 74 bc 8c f0 b4 bd c6 f7 32 3f ff 8a 08 bf
       -0.014949671 -0.08834943 0.6990932 -0.5333709
000140 d2 57 77 bc 3b b6 f8 bd e0 10 37 3d 08 c5 50 3d
       -0.015096622 -0.12144133 0.044693828 0.050969154
000150 92 d0 1f bf a5 53 27 bb 6b 08 79 3c 6e 71 47 3c
       -0.6242763 -0.0025532034 0.015199761 0.01217304
000160 c0 2e 08 3c 1e ae 32 3d d4 6e fa bc d2 8b bb bc
       0.008311927 0.043623082 -0.030570425 -0.02289382
000170 f4 1d 1b bd 3d 30 6a bd 46 2c 45 bd 59 08 85 3d
       -0.037870362 -0.05717491 -0.048137926 0.06495733
000180 72 58 d1 3c 36 04 a7 bd d6 e2 25 3c 49 1c 9b bc
       0.02555487 -0.081551 0.010124883 -0.018934386
000190 94 ca f0 bd 8f 50 51 3d f0 f8 81 3c b4 4d 38 3d
       -0.11757389 0.051102217 0.015865773 0.04499598
0001a0 75 b4 5b 3d fd e2 ea bb ec 55 54 be 3c b4 76 3d
       0.053638894 -0.0071681724 -0.20735902 0.06023048
0001b0 45 cc bf bd 16 14 58 be ca b4 4c bd 90 bf 25 3c
       -0.09365133 -0.21101412 -0.0499771 0.010116473
0001c0 10 d2 8b 3c 3c f6 80 3c c6 28 4a bd b6 d5 2f 3c
       0.017067939 0.015742414 -0.04935529 0.010732105
0001d0 16 a3 cd 3e 61 d4 a2 be 67 a9 77 3e 57 37 00 be
       0.40163487 -0.31802657 0.24185716 -0.1252111
0001e0 22 45 3d bd f0 10 5d bf 03 f0 bd be 74 01 75 3c
       -0.04620851 -0.8635397 -0.37097177 0.01495396
0001f0 8b 36 d5 bd 70 ba 37 bb 82 bd a5 3e 02 8b 3c bf
       -0.10410794 -0.002803471 0.32371145 -0.7364961
000200 25 f1 1b bd 18 0f 2b 3c 7c 36 03 3d 50 0d ff 3c
       -0.03807177 0.01044061 0.032034382 0.031134278
000210 cb 82 60 bc e6 10 43 bb 84 a5 ea 3c 5a 49 c1 3c
       -0.0137030585 -0.002976471 0.028643377 0.023594547
000220 e0 26 30 3c c9 cc 57 3d 34 4b 64 bc 24 85 13 bd
       0.010751456 0.052685533 -0.013933945 -0.036015645
000230 60 3b aa 3c ff 42 ea 3c c0 17 06 ba db 17 03 bf
       0.020780265 0.0285964 -0.00051152334 -0.51208276
000240 ea e2 2b bf 34 3e 5c 3e 88 0f 04 3e ef 7e 92 3c
       -0.6714312 0.21508104 0.1289655 0.017882792
000250 da cd 40 bd 1f cf 68 be 23 dc aa bc e9 45 3a bd
       -0.047071315 -0.2273526 -0.020856922 -0.045476828
000260 cb 3f 8c 3d 54 3a fa bb 88 f3 0e bc e6 6c d4 be
       0.06848105 -0.007636348 -0.008725055 -0.41489333
000270 84 87 40 bd ea a7 44 3d 48 99 8c be 65 72 d4 bb
       -0.047004238 0.048011698 -0.27460694 -0.0064833635
000280 96 da 7b 3c e7 f7 d9 3c 54 99 b5 bc fa a4 52 3d
       0.015371939 0.026607467 -0.02216784 0.051426865
000290 12 6f 59 3d 14 01 8f bb ce 46 14 bd 0c 11 09 3d
       0.05308444 -0.004364142 -0.036200337 0.033463523
0002a0 ac 76 88 bc 9c 8e e3 bb 9f f1 2f be 02 e1 c7 be
       -0.01665815 -0.0069444906 -0.17182015 -0.39038855
0002b0 ec a5 e8 bc 84 57 40 bd 48 42 85 bd 6a 7d 50 bd
       -0.02839943 -0.04695846 -0.06506783 -0.050900854
0002c0 dd 8a 83 3e 42 d5 3c 3c d3 f3 dc bc 06 5d 11 3e
       0.25691882 0.011525454 -0.026971733 0.14195642
0002d0 0b 26 13 bf 99 9a 55 bd f4 67 3b 3b cd 2f b8 3e
       -0.57479924 -0.05214939 0.0028595896 0.3597397
0002e0 e9 2a 38 bc 1d a0 bf 3b 42 ea b4 3c 44 c9 74 bc
       -0.011240699 0.0058479444 0.02208436 -0.014940564
0002f0 09 eb 16 3e bb 8f 2f bd 15 a9 5c bd 50 84 1d 3c
       0.14738096 -0.04286168 -0.053872187 0.009614065
000300 4b 3a 57 bc 61 a6 85 3b e4 53 b8 bc 7d 05 2a 3d
       -0.013136457 0.004078672 -0.02250094 0.04150914
000310 61 ae 89 bd b7 2b 2e 3d fa 94 df bb 25 e7 e7 bc
       -0.06722713 0.04252216 -0.0068231793 -0.02830846
000320 c0 33 01 bc f0 af 8a bc 9b 04 ee bb b2 75 25 bb
       -0.007885873 -0.016929597 -0.0072637326 -0.0025247154
000330 ee 05 45 bd ac 97 cc 3b 89 39 ef 3b 5c 55 f6 bc
       -0.048101358 0.0062436666 0.00730056 -0.03007
000340 57 58 5d bb 2a c1 30 be 94 79 08 ba 40 fe 8c 3d
       -0.0033774578 -0.17261186 -0.0005206105 0.06884432
000350 9d b9 63 3c 87 c0 e5 3b 5b 2f 58 bd da 8a 3f bd
       0.013899234 0.0070114764 -0.052779537 -0.04676328
000360 46 f0 40 3d d4 96 4d 3d c4 18 00 3d f9 d3 5e bc
       0.047104143 0.05019267 0.03127362 -0.013600343
000370 a0 8b 2b bd c2 50 5b 3e 32 68 93 bc 18 fa 45 bd
       -0.041881204 0.21417525 -0.01799402 -0.04833421
000380 ad 1f 9b 3c 4c 17 3c 3d 63 03 3b bd fc 32 41 3c
       0.018936003 0.045920655 -0.045657527 0.011791941
000390 00 b8 59 bc 23 41 25 3d fe d8 4a bb 18 6b d4 3c
       -0.013288498 0.040345322 -0.0030952091 0.025929973
0003a0 28 61 c7 3c 66 5a bb bc f2 39 59 bd 50 5c 32 3d
       0.02433832 -0.022870254 -0.053033777 0.043545067
0003b0 5a 87 ee bc 64 58 03 ba 6d b9 26 bc 8a 66 f3 be
       -0.029117275 -0.00050104246 -0.010176045 -0.4753917
0003c0 0b da c0 be a4 d4 c0 3e 41 e1 31 3f c9 d3 db bd
       -0.37666354 0.37662232 0.69484335 -0.10733754
0003d0 f5 7c 18 bb 00 6d 9b 3b 06 25 a3 be 14 fc 0f 3d
       -0.002326784 0.0047432184 -0.31864184 0.03515251
0003e0 f5 79 de bd d1 5a d2 be b9 d7 2a bd 68 e9 5c bc
       -0.10863105 -0.41084912 -0.041709635 -0.013483383
0003f0 ec f5 00 3c 31 1f 2a bd a7 46 5f 3b cf e8 da 3c
       0.007871132 -0.041533653 0.0034069212 0.02672234

layer3.bias f4 [128]
000000 8c f6 33 be 8e e2 be bd 97 3a a5 be 48 44 97 be
       -0.17574519 -0.093205556 -0.32271263 -0.29544282
000010 c1 98 94 3e f7 37 9b be 71 9a 98 be 86 9a 1a bf
       0.29022792 -0.30316135 -0.2980533 -0.60392034
000020 ce f1 c7 be 44 74 c7 be 9d 25 ed be 39 db ac 3c
       -0.3905167 -0.3895589 -0.4631776 0.021100627
000030 22 a3 e8 be ac 00 a9 be 9c 4f eb bd 62 f9 40 3d
       -0.4543696 -0.33008325 -0.11489794 0.04711283
000040 34 4e c1 be 01 0f 1a bf 63 6c cd be 4a 86 8b 3e
       -0.37754977 -0.60179144 -0.40121755 0.27250892
000050 5e 35 10 3e d6 93 45 be 1e d4 8a bc 2d d4 b8 bd
       0.14082858 -0.19294676 -0.016946848 -0.09024844
000060 7c ab ca bd 6f 0a b2 be d1 87 a4 3d b8 17 65 be
       -0.09895989 -0.34773585 0.080337174 -0.22372329
000070 b5 88 0e bd 1a a3 d2 be 70 15 3c be a5 e5 3a bf
       -0.034798343 -0.41140062 -0.18367553 -0.7300666
000080 b3 64 44 be bc 7f ec bd f1 97 de 3d 45 e9 d6 be
       -0.19179039 -0.11547801 0.10868824 -0.41974846
000090 24 61 71 be 51 e8 31 be a4 fc 3c 3e dd bf a8 3d
       -0.23572212 -0.17373778 0.1845575 0.0823972
0000a0 38 a3 92 be 28 b9 e6 3d 83 e0 a7 bd b8 e2 8b 3d
       -0.2864015 0.112657845 -0.08197119 0.068303525
0000b0 2d 6a 94 be 2e b9 dd bd 90 2b 2a 3d a1 4f c4 3e
       -0.28987256 -0.10826336 0.04154545 0.38342002
0000c0 a6 40 ec bd 75 92 38 be 1a 05 ba be ae 77 0c be
       -0.11535768 -0.18024619 -0.36332017 -0.13717529
0000d0 81 1c a6 be d8 29 00 be 0f 25 a2 3d b2 fd 70 3e
       -0.32443622 -0.12515962 0.079172246 0.23534277
0000e0 17 fd 77 bd fb 69 2b bf ec 02 b1 be a6 ae ad 3c
       -0.0605441 -0.6695859 -0.34572542 0.021201443
0000f0 5e 78 ee be 7c 90 f2 be 94 82 a1 bd 28 2f a5 bd
       -0.46576208 -0.47375858 -0.07886234 -0.08065635
000100 ba 28 b1 bd 38 f7 a3 3e ed a2 ea be 12 4e 32 be
       -0.08650346 0.3202455 -0.45827428 -0.17412594
000110 e5 61 90 bf 84 74 17 be 23 d3 53 be a5 00 1b bf
       -1.1279875 -0.14790541 -0.20686011 -0.6054786
000120 b4 6e 69 3e 31 1e ba be b6 0e 7c 3d bf 62 59 be
       0.22796136 -0.3635116 0.061537467 -0.21229075
000130 02 78 cb be 2d 08 81 be dc ce 4b be 89 80 41 3d
       -0.39739996 -0.2520155 -0.1990313 0.04724172
000140 d0 1d ab bd e0 02 b1 be 98 2d d4 be 30 ca c6 3c
       -0.08355296 -0.34572506 -0.41441035 0.024266332
000150 7d 42 0a bf 44 83 98 bd 7d 99 13 be 40 61 4f 3e
       -0.54007703 -0.07446912 -0.1441402 0.20251942
000160 cd 2e de be 29 d6 d5 3c fd 75 02 be 64 86 a1 3d
       -0.4339508 0.026103096 -0.12740321 0.07886961
000170 f6 c2 73 be 38 90 03 bd 82 13 74 be d4 f2 cb bc
       -0.2380484 -0.03211996 -0.23835567 -0.024896063
000180 44 4a 41 bf 3c 35 71 be bb 9c aa be 77 4f c0 ba
       -0.75503945 -0.23555464 -0.333227 -0.001467212
000190 e9 7b 3f be 98 fe ae be f2 f4 83 be cc a1 51 be
       -0.18699612 -0.34178615 -0.25772816 -0.20471877
0001a0 1e 76 1d bf b4 61 8f be f9 ba 88 be d4 24 ab be
       -0.6150836 -0.2800423 -0.2670515 -0.33426535
0001b0 91 33 c6 bd d8 38 bc be 76 16 4e be fe f4 dc be
       -0.09677804 -0.36762118 -0.20125756 -0.43155664
0001c0 0d 8b 09 3f ca d6 c6 bd 21 60 8d be ef eb 27 bf
       0.537278 -0.097089365 -0.27612403 -0.6559438
0001d0 93 2b 9c be 46 23 8e be cd 10 3e 3e 6e 80 a3 be
       -0.30501994 -0.27761286 0.18561096 -0.31933922
0001e0 a4 6c 25 bf fc 03 b1 be a5 62 22 bf ac 0d ee 3d
       -0.646189 -0.34573352 -0.6343177 0.116237015
0001f0 08 b6 9c be cb 62 2d 3f d7 ac 1f bf 6c ea 2b be
       -0.3060763 0.6772887 -0.6237311 -0.16788644

layer4.weight f4 [3, 128]
000000 bd 1d e8 3e c8 ce 8d 3c e9 be 0b 3e 25 72 e4 be
       0.45335189 0.017310515 0.13647045 -0.44618335
000010 5d 52 05 bf 4e 2e 18 be 84 bb 1b bd c2 fb 80 be
       -0.520788 -0.14861414 -0.038020626 -0.25192076
000020 d0 d7 22 bb 96 7e 49 3f d0 d3 82 3e f4 34 10 bf
       -0.0024847873 0.7870878 0.25552225 -0.563308
000030 c5 b9 e0 3f 21 e9 a9 bf cb 11 bd bd dd 22 45 3d
       1.7556692 -1.327427 -0.09231909 0.04812895
000040 a7 47 87 bf 06 a7 b3 be ad 18 45 3f 6b e4 6c 3d
       -1.0568742 -0.35088366 0.7699078 0.057835024
000050 6f 23 1f be f4 5b 8c 3e 5e 40 71 bd ad 5f 4d 3f
       -0.1554086 0.27413905 -0.058899276 0.80224115
000060 ba eb 64 3c e2 70 63 40 78 40 03 3e 49 90 a9 3e
       0.013972217 3.5537648 0.12817562 0.33117893
000070 8c 2e 80 3b fe a9 04 be f6 c7 aa bf ec ca 83 3f
       0.003911799 -0.12955472 -1.3342273 1.0296302
000080 81 80 cd be 95 90 d6 3c 2c 99 31 bf e2 22 10 be
       -0.40137103 0.026191989 -0.69374347 -0.14075807
000090 68 5e 8a be 51 09 5e 3d cd 57 1e be ad e6 9c bf
       -0.2702515 0.054208104 -0.15463181 -1.2257897
0000a0 8a 68 9f be cd 8b f6 bf 02 d4 4b bf e1 6f 90 3e
       -0.31134444 -1.9261414 -0.79620373 0.28210357
0000b0 a3 f9 32 bf 11 cf ef 3e 09 f0 b7 3e 94 67 9f 3e
       -0.69912165 0.46837667 0.3592532 0.3113371
0000c0 ad 70 c2 c0 35 b2 17 bf 23 89 6a be 1f 24 0a bf
       -6.0762544 -0.592563 -0.22903876 -0.53961366
0000d0 1a a2 8e 3f 40 68 97 3c d3 e5 8a bf 81 20 e2 be
       1.114322 0.018482327 -1.0851387 -0.44165424
0000e0 06 37 51 bf cb f6 71 3f 26 1f f1 3e 2e 70 d3 3e
       -0.81724584 0.945172 0.47094077 0.41296524
0000f0 b0 79 67 bf fc de 43 40 ad 8d 07 c0 c5 80 10 c0
       -0.90420055 3.060485 -2.1180222 -2.2578595
000100 67 e4 e7 be b1 5e 81 3f 12 1d f3 bf 0a ba 4e 3e
       -0.45291445 1.0107023 -1.8993247 0.20188156
000110 74 6f 19 c0 ad 0d f6 be 79 32 54 bd d0 dc 01 3d
       -2.3974276 -0.4805731 -0.051805947 0.031704724
000120 f9 90 03 bf a0 0a 49 3f 1c 56 48 bd 1d 8c a3 bd
       -0.51393086 0.7853184 -0.048910245 -0.07985709
000130 78 53 69 c0 27 ae 12 be 22 a7 06 3e d7 d0 bf 3e
       -3.6457195 -0.14324246 0.13149694 0.3746402
000140 d8 11 78 40 fe 75 1d 3e ee 5d bf be 8a 8d c2 be
       3.876089 0.15377042 -0.3737635 -0.3799861
000150 ad ca 96 3e d9 b5 0a be c1 b3 eb be fb 0e a2 bf
       0.29451504 -0.13545932 -0.4603558 -1.2660822
000160 7b 3c 2c 3f a2 ec 86 3f 4f d0 2d 3d b5 2e fe bd
       0.67279786 1.0540965 0.042434987 -0.124112524
000170 a4 20 76 3d bf b5 c7 be 62 3c 2c be 35 38 3b 3d
       0.060089722 -0.3900585 -0.16819909 0.0457079
000180 20 85 52 3e 75 2a 2f c0 02 5f 73 be d8 fb c2 3e
       0.20558596 -2.7369664 -0.23766711 0.38082767
000190 60 46 ae 3d 17 4a 9b 3f 1e 4a c6 be 19 11 ac be
       0.08509517 1.2131985 -0.38728422 -0.33606794
0001a0 68 9b 0b 3f b8 e5 83 bf f4 17 46 bf 94 04 53 bf
       0.54534006 -1.030448 -0.773803 -0.8242886
0001b0 2e 4a af c0 9e 73 33 be 7c 08 37 bf 3c 60 58 be
       -5.477805 -0.17524573 -0.7149732 -0.2113046
0001c0 43 01 02 3f 54 32 8b bc 7d 58 1c bc b2 16 60 be
       0.50783175 -0.016991772 -0.009542582 -0.21883658
0001d0 bd 94 a2 3e 87 a5 38 40 8b 01 01 be f1 8f 0e 3e
       0.31754103 2.885103 -0.12598245 0.13922097
0001e0 20 6f 56 be 45 c4 ae bf 2e 5c f0 be bf d2 af 3c
       -0.20940828 -1.3653647 -0.46945328 0.021462796
0001f0 64 44 5a be b0 08 1e 3e 7e 86 75 be 35 fd df be
       -0.21315151 0.15433002 -0.23977086 -0.4374787
000200 e9 95 58 be b1 4b 2d 3d 60 46 5f 3e a2 23 ad 3e
       -0.21150936 0.042308513 0.2180419 0.33816248
000210 2a 74 a7 3e 92 20 82 bb 41 ce 98 3e 06 6c f9 3e
       0.32705814 -0.003971168 0.2984486 0.48715228
000220 49 59 65 bf 46 23 dc 3d 24 a0 f0 3e cd dc d3 40
       -0.89589363 0.107489154 0.46997178 6.620703
000230 1f 00 0a be b4 eb c2 3e 21 ef b8 bc 28 c3 fc 3e
       -0.13476609 0.38070452 -0.022574963 0.49367642
000240 54 33 03 be ac f2 97 3c 54 33 11 40 f5 87 36 bf
       -0.12812549 0.018548332 2.2687578 -0.71301204
000250 09 72 14 41 7a 16 6c 3e 55 79 52 3d 2f 9c 3a be
       9.277841 0.23055449 0.051385242 -0.18223642
000260 84 8f b7 3c 0e a4 3a bd eb 5e 1f bf 80 f5 54 3d
       0.0224073 -0.04556661 -0.6225421 0.05199194
000270 7c 77 c5 3d 29 c3 ad be 73 b1 69 3e 30 c1 08 3f
       0.096419305 -0.33937958 0.22821598 0.5341978
000280 1c 5e d0 3d b9 8b d2 bc 95 9f 9c 3e 6f 3e 43 bf
       0.101742 -0.02570139 0.305905 -0.7626714
000290 e4 6e 92 be 87 03 92 be 30 13 be be 7b 08 de 3f
       -0.28600228 -0.28518316 -0.37124014 1.7346338
0002a0 02 84 75 3e 5c 40 b8 3f 0a 55 48 3f f4 91 7c 40
       0.23976138 1.4394641 0.7825476 3.9464083
0002b0 6c 3f d4 3d d8 e8 7e 3e 33 2a c7 3e 68 d5 6e be
       0.10363659 0.2489351 0.38899383 -0.23323596
0002c0 ac 74 92 3a 1f 81 92 be eb f0 1f 3f de fc f4 bd
       0.0011173687 -0.28614137 0.62476987 -0.11962293
0002d0 b6 fe 25 3e f6 4f 43 3b e7 25 90 40 ca f2 47 3f
       0.16210446 0.00298023 4.5046268 0.7810484
0002e0 dd 64 26 3f 25 ba 21 3f c0 f4 87 be ba 0e 60 3d
       0.64997655 0.6317466 -0.26553917 0.054701544
0002f0 65 22 aa bf 34 65 57 40 59 ac d1 bc a9 c4 10 40
       -1.3291746 3.365552 -0.025594877 2.2620032
000300 f5 9e ac 3f 81 6f 58 bd 7c 8e 0c be 42 fa 1e bd
       1.348601 -0.052840713 -0.13726228 -0.038812883
000310 bf 82 cc 3e 2f dd 26 3d 4e e0 8c 40 9a 5e 6c 3d
       0.399435 0.04073828 4.402381 0.057707407
000320 eb 2d 1c 3f dc 1c b0 be d6 35 73 be f4 45 87 3e
       0.61007565 -0.34397018 -0.23751006 0.26420557
000330 cc 55 6f be c9 e8 bd bd 19 b2 82 bc 0f 78 d7 3e
       -0.23372573 -0.09272916 -0.015954064 0.42083785
000340 d4 59 ab 3e ea 47 cd bd 78 60 59 3f f7 90 6c 3f
       0.3346697 -0.10023482 0.84912825 0.924087
000350 69 f8 00 3d f9 01 50 3f 0d 66 37 be c6 32 d7 3e
       0.031486902 0.8125301 -0.17910023 0.42030925
000360 18 8a bb 3e 8a 29 4e 3f b0 81 3c 3d f2 83 1f 40
       0.36628795 0.80532134 0.046022117 2.4924283
000370 f8 46 bc 3e 4d 5e 28 40 38 d1 f7 bd 32 53 5b bc
       0.36772895 2.6307557 -0.12100452 -0.0133865345
000380 60 8a 50 40 75 b8 0f 3e 0f d3 ac be 8a f8 c8 3f
       3.2584457 0.14035209 -0.33754775 1.5700848
000390 6b d1 b9 3d ff 24 b2 3f 96 16 be be 6e eb e3 be
       0.090731464 1.391754 -0.37126607 -0.44515556
0003a0 dd c7 5e 3f c3 c5 6c 40 f1 66 ac 3e d4 62 2e bd
       0.8702372 3.6995704 0.33672288 -0.04257472
0003b0 dc 4b 3c be fc ab 59 3e 10 cb 3f be c6 39 2c 3d
       -0.18388313 0.21257013 -0.18729806 0.042047285
0003c0 eb 64 2d bd cd 7d 2a 3d d2 31 a7 bd 9c 6c 18 3c
       -0.04233257 0.04162388 -0.08163799 0.009303238
0003d0 c1 ca 79 3f 01 bf f6 bb fc 12 17 3e 28 5c a8 bf
       0.97575 -0.0075300937 0.14753336 -1.3153124
0003e0 14 70 37 bd 09 e4 16 3d 6b 96 4f be 7e d4 43 3f
       -0.04478462 0.036838565 -0.20272224 0.7649611
0003f0 4b d0 e6 3e a8 92 6c 3e 7f 53 99 3e 15 39 aa bc
       0.4508079 0.2310282 0.29946515 -0.020779172

layer4.bias f4 [3]
000000 2f 3a 7a 3d 9e d0 86 be 7d d1 5c be
       0.061090644 -0.26331037 -0.21564288
