src/rl_robot/reinforcement/checkpoint/target_crit.pth (torch, 13360 bytes, 3 tensors)

layer1.weight f4 [256, 9]
0	0xbe88ce6e	-0.26719993
1	0xc0a6a19c	-5.2072277
2	0xbfae16a9	-1.3600665
3	0x3cffa616	0.031207126
4	0x3d6c99ec	0.05776398
5	0xbf8bdab6	-1.092612
6	0xbdb8a2b3	-0.090154074
7	0x3c9c69f2	0.019093487
8	0xbe24725a	-0.16059247
9	0x3e492268	0.19642031
10	0xbd4f8e1e	-0.050672643
11	0x3e1f9368	0.15583575
12	0x3c2e0c2e	0.010623021
13	0xbe29b18c	-0.16571635
14	0xbd96c9ad	-0.07362685
15	0x3c332897	0.01093497
16	0xbd244638	-0.04010603
17	0xbd454309	-0.048159633
18	0x3f4a49bf	0.7901878
19	0xbf9994fd	-1.1998593
20	0x3e3c36bf	0.18380259
21	0xbe1f33ea	-0.15547147
22	0xbe396c00	-0.18107605
23	0xbf046253	-0.5171253
24	0xbdb86696	-0.09003942
25	0x3ef0e8b3	0.47052535
26	0xbf0f2a8b	-0.5592429
27	0x403dd792	2.9662824
28	0xbfa48ffd	-1.2856442
29	0xbf70fd04	-0.9413607
30	0xbc743c26	-0.014906919
31	0x3a2a9191	0.00065066764
32	0xbf207a18	-0.626863
33	0xbdb11b30	-0.08647764
34	0xbc3bc412	-0.011460321
35	0xbd500a83	-0.050791275
36	0x3e8c6058	0.27417254
37	0x3fcb20a5	1.5869337
38	0x3e90e088	0.28296304
39	0xbf004c0b	-0.5011603
40	0xbe6572c2	-0.22407058
41	0x3ebf3fb9	0.37353304
42	0xbf3e7d95	-0.7441037
43	0x3dd7d2dd	0.10538266
44	0xbe48ce13	-0.19609861
45	0x3feba28d	1.8408982
46	0xc02a1509	-2.657534
47	0x3fe2a1c3	1.7705616
48	0xbe2f4b94	-0.17118675
49	0xbba58ddb	-0.005052311
50	0x3f3b210d	0.73097306
51	0x3ecf22d1	0.4045625
52	0xbd92d1a9	-0.07168896
53	0x3d945c4a	0.07244165
54	0x3cfc121a	0.03077035
55	0x3f3f447b	0.7471387
56	0xbeacfef9	-0.3378828
57	0xbef5ea93	-0.48030528
58	0xbf229617	-0.6351027
59	0xbf416de3	-0.755583
60	0x3f0588d0	0.52161884
61	0xbc2ff333	-0.010739136
62	0x3d3f3cf6	0.046688996
63	0x40503962	3.2535024
64	0xc0971899	-4.7217526
65	0xbed9e79b	-0.42559513
66	0xbcbc1bee	-0.022962537
67	0xbc58cb78	-0.0132321045
68	0xbde3d039	-0.111237
69	0xbd85d726	-0.06535177
70	0x3d5c5b18	0.05379781
71	0x3c9814bf	0.01856458
72	0xbe428f4b	-0.18999974
73	0xbed5b0e0	-0.41736507
74	0xbe2c96a2	-0.16854337
75	0xbbffca0a	-0.0078060674
76	0xbe40c8eb	-0.18826644
77	0x3e722e4a	0.2365047
78	0x3d0328d1	0.032021347
79	0x3d51165c	0.051046714
80	0xbe0a5eca	-0.13512722
81	0x3b19a33f	0.002344325
82	0xbdc5cc6c	-0.09658131
83	0xbdc44a51	-0.09584487
84	0xb93f85a6	-0.00018264967
85	0xbe69c02a	-0.22827211
86	0x3e456c8c	0.19279689
87	0x3ddf49ac	0.10902724
88	0x3b071bac	0.002061586
89	0x3ce6d3da	0.02817719
90	0xc0336cdb	-2.803519
91	0x3c059442	0.008153023
92	0x3fa3b96b	1.279096
93	0x3ce6ca95	0.02817277
94	0xbeeb245f	-0.45926186
95	0x3f8f02c0	1.1172714
96	0xbf0bab75	-0.545585
97	0xbdfbe9b5	-0.123004355
98	0xbd1605a8	-0.036626488
99	0xbf5d3389	-0.8640676
100	0xbd1b58b4	-0.03792639
101	0xbe71ac57	-0.23600899
102	0xbe8dac38	-0.27670455
103	0xbf12a2e7	-0.5727982
104	0x3eca8b46	0.39559382
105	0x3f678e04	0.90451074
106	0x3f0cb33b	0.54960984
107	0xbea5fc16	-0.3241889
108	0x3fae0f0d	1.3598343
109	0xc0aea11a	-5.4571657
110	0x3edc7147	0.43055174
111	0xbe59d81a	-0.21273842
112	0xbdc0053b	-0.09375998
113	0xbf3138d7	-0.69227356
114	0xbdcb88c6	-0.09938197
115	0x3ee5d68b	0.44890246
116	0xbd5d9628	-0.05409828
117	0x3ef98c2f	0.48739764
118	0xbe8fedf8	-0.28111243
119	0x3dd4a9e2	0.10383965
120	0x3e555fd1	0.20837332
121	0x3ecb0b30	0.39656973
122	0x3f965767	1.1745423
123	0x3e78e1f6	0.24304947
124	0x3d856ba3	0.06514671
125	0x3d970394	0.07373729
126	0x3f4c8da9	0.79903656
127	0xbf353b34	-0.7079346
128	0xc02140c4	-2.519578
129	0xbdf1f2b6	-0.118138716
130	0xbe39646a	-0.18104711
131	0xc0541f8a	-3.314425
132	0xbcd4b294	-0.025964059
133	0xbdc5aa2d	-0.09651599
134	0xbeca398d	-0.39497033
135	0xbf2cea85	-0.6754535
136	0xc01ee773	-2.4828765
137	0x3fbf4f37	1.494605
138	0x3efb9ade	0.49141592
139	0x3dd5a427	0.104317
140	0x3e37a9e1	0.17935897
141	0x3ed7c06f	0.42139003
142	0xbda5af55	-0.080900826
143	0x3e83a745	0.25713554
144	0xbf29d9da	-0.6634804
145	0x3d04ed21	0.032452706
146	0x3e70b18c	0.23505229
147	0xbdd1d9c3	-0.10246613
148	0xbdffda35	-0.124927916
149	0xbd1dfcc8	-0.03857115
150	0xbe202462	-0.15638879
151	0xbe8639d5	-0.26215997
152	0x3e2a3269	0.16620792
153	0xbf57456d	-0.8409031
154	0x3e46636f	0.19373868
155	0xbf1f2f85	-0.62181884
156	0xbedc6736	-0.43047494
157	0x3ddf26ec	0.10896096
158	0x3e90b8a8	0.28265882
159	0xbc324fda	-0.010883296
160	0x3d71e771	0.05905861
161	0x3eaf1977	0.34199116
162	0x401f19b4	2.4859438
163	0xc06ba0b8	-3.6816845
164	0x3f4c6657	0.7984366
165	0xbe768283	-0.24073224
166	0xbe44c996	-0.19217524
167	0x3f6ae921	0.91761976
168	0x3e2cce79	0.16875638
169	0x3ea9a7e3	0.331359
170	0xbd885d1a	-0.06658383
171	0x3f476c71	0.77899843
172	0x3f11226c	0.5669315
173	0xbf81f6f7	-1.0153493
174	0x3e83d88e	0.25751156
175	0xbda88f77	-0.08230489
176	0x3f96b0dc	1.1772723
177	0xbf0d3c2e	-0.5516995
178	0xbf2d0618	-0.67587423
179	0xbe3037a4	-0.17208725
180	0x3ef06974	0.46955454
181	0x3f093e1c	0.53610396
182	0xbdaf1eb6	-0.085507795
183	0xbe4be494	-0.19911414
184	0xbe639927	-0.22226392
185	0x3ec6fec6	0.38866252
186	0xbf144857	-0.5792288
187	0x3e9298a7	0.2863209
188	0x3ea9e346	0.33181208
189	0x3e978e7e	0.296009
190	0xc0c51793	-6.1591277
191	0x3fb7ab2e	1.4349115
192	0xbb9cd3be	-0.004785984
193	0xbdc0bec2	-0.09411384
194	0x3ea27014	0.31726134
195	0xbe66e511	-0.2254832
196	0xbdd57b8e	-0.10423957
197	0x3e87599a	0.26435548
198	0xbd6635cf	-0.05620366
199	0xc004525d	-2.067527
200	0x41033dcb	8.202586
201	0x39c65c05	0.00037834063
202	0x3cb6ce68	0.022315219
203	0x3e0dd6ac	0.13851422
204	0x3cb1b082	0.02169061
205	0x3b877156	0.0041333837
206	0x3f4d5679	0.8021007
207	0x3ea8711e	0.32898802
208	0x3f961e53	1.1728004
209	0x3f73f6cb	0.9529845
210	0xbeaad76f	-0.33367488
211	0xbec9ea95	-0.39436784
212	0x3fa51f84	1.2900243
213	0xbefbabda	-0.4915455
214	0xbe2e3f00	-0.1701622
215	0xbd80a301	-0.062810905
216	0x3f8b8164	1.0898862
217	0xbf2b5ee4	-0.66941667
218	0x3f37c964	0.7179167
219	0x3e8445e9	0.25834587
220	0x3daeffaa	0.08544858
221	0x3f06763c	0.5252416
222	0x3f1eb546	0.6199535
223	0x3f3d34ae	0.7390851
224	0x3e8eb956	0.27875775
225	0xbf8fe83c	-1.1242747
226	0x3f826818	1.0188017
227	0xbf49913b	-0.7873723
228	0xbeaf805e	-0.34277624
229	0xbd7011c2	-0.058610685
230	0xbe9078f1	-0.2821727
231	0x3e607508	0.21919644
232	0xbea512da	-0.32240945
233	0xbde816be	-0.11332463
234	0xbecdc670	-0.40190458
235	0x3ed8076c	0.42193162
236	0xbe4abb29	-0.19797958
237	0xbdeade0c	-0.11468133
238	0xbf242a5b	-0.6412713
239	0x3fe35cad	1.7762657
240	0x3e208896	0.15677103
241	0x3ee62053	0.44946536
242	0xbe375096	-0.17901835
243	0xc0a1fa04	-5.0617695
244	0x3eabdb2b	0.3356565
245	0xc00cdb61	-2.2008898
246	0x3d8870d5	0.06662146
247	0xbc5d8300	-0.013520002
248	0x3df540fe	0.11975287
249	0x3dae6454	0.0851523
250	0xbd0b2b6e	-0.033976965
251	0xbcc0dad1	-0.02354184
252	0x3f21f92a	0.6327082
253	0xbe7f18d5	-0.24911816
254	0xbfc115dd	-1.5084797
255	0x3f0f0bca	0.55877364

layer1.bias f4 [256]
0	0xbe8f780a	-0.2802127
1	0xbd452b12	-0.04813678
2	0x3e450533	0.19240265
3	0x3d1a4c00	0.037670135
4	0xbee863ae	-0.4538855
5	0x3c4695b1	0.01212065
6	0x3e91203c	0.28344905
7	0x3db4c6fb	0.08827015
8	0xbdcdb414	-0.10044113
9	0x3d3fe767	0.04685154
10	0x3dc476fd	0.09593008
11	0xbdc6487e	-0.096817955
12	0xbe8489e4	-0.25886452
13	0xbf937368	-1.1519594
14	0xbd698b38	-0.057017535
15	0x3f31007b	0.6914136
16	0xbe25c472	-0.16188219
17	0xbf26ad0f	-0.65107816
18	0x3e200eeb	0.15630691
19	0xbe193030	-0.14959788
20	0x3e96dc40	0.29464912
21	0x3e1b26fc	0.1515159
22	0xbd38f115	-0.04515179
23	0xbe10031d	-0.14063688
24	0x3e8310dd	0.25598803
25	0x3f15c3f6	0.5850214
26	0x3ecd2e25	0.40074268
27	0xbe3e8791	-0.18606402
28	0xbf39769e	-0.7244662
29	0xbdd942ba	-0.1060843
30	0x3d335497	0.043781843
31	0xbe8a4e74	-0.2701298
32	0x3eadc17c	0.3393668
33	0xbe32fe45	-0.17479809
34	0x3ec9d490	0.39419985
35	0xbdf4c289	-0.11951167
36	0x3da1fa47	0.07909065
37	0xbe82e7ad	-0.2556738
38	0xbe59f8e7	-0.21286355
39	0xbf319451	-0.6936694
40	0xbe0a84fa	-0.13527289
41	0xbf87e9d1	-1.061823
42	0x3e94298d	0.2893795
43	0xbf18bc5a	-0.596624
44	0xbdfe4b08	-0.12416655
45	0xbe63558e	-0.22200605
46	0x3e239121	0.15973331
47	0xbc9021aa	-0.017594177
48	0xbe25441d	-0.16139264
49	0xbe6e49ca	-0.23270336
50	0xbd134e82	-0.035963543
51	0xbea17b3f	-0.31539342
52	0xbf548498	-0.8301482
53	0xbece64ba	-0.40311223
54	0x3d6aa956	0.057290398
55	0xbdbfb602	-0.09360887
56	0xbe90ed43	-0.28306016
57	0xbf7bc08b	-0.9834067
58	0xbe592d7d	-0.21208759
59	0xbe9963d1	-0.29958966
60	0xbef26d3b	-0.4734896
61	0x3f0303a4	0.5117743
62	0xbe848d27	-0.2588894
63	0xbe771f23	-0.24132971
64	0x3f3d9c23	0.7406637
65	0xbe567fe1	-0.2094722
66	0xbe879db0	-0.26487494
67	0xbea612ff	-0.32436368
68	0xbe03b459	-0.12861766
69	0xbea113c9	-0.31460407
70	0xbeb6bae2	-0.35689455
71	0xbcf560de	-0.029953416
72	0xbd90333e	-0.07041024
73	0xbf4ea1d6	-0.8071569
74	0xbe6f822a	-0.23389497
75	0xbf2df5fa	-0.67953455
76	0xbda1ea4d	-0.079060175
77	0xbec85db4	-0.3913399
78	0xbe9ed673	-0.31022987
79	0xbe9a1bcb	-0.3009933
80	0x3cf9f4c2	0.030512217
81	0xbcc60585	-0.024172554
82	0xbd92bd9f	-0.071650736
83	0xbf333400	-0.7000122
84	0xbf0f366f	-0.55942434
85	0xbf0eb607	-0.557465
86	0xbefb8ff3	-0.49133262
87	0xbdd6e434	-0.10492745
88	0xba766a1f	-0.00093999685
89	0xbe69d172	-0.22833803
90	0x3ec9e54f	0.3943276
91	0xbf0f4379	-0.5596233
92	0xbf05746b	-0.52130765
93	0xbd8f9963	-0.07011678
94	0x3ec7c500	0.39017487
95	0x3d393647	0.04521778
96	0xbf767e99	-0.9628692
97	0xbecf22b0	-0.40456152
98	0xbeff8793	-0.49908122
99	0xbdef38e9	-0.116807766
100	0xbe87612d	-0.26441327
101	0xbea16679	-0.31523493
102	0xbe97c042	-0.2963887
103	0xbf2953a0	-0.66143227
104	0xbcd318dc	-0.02576869
105	0xbe1f425a	-0.15552655
106	0xbe36b0e0	-0.1784091
107	0xbdc802a8	-0.09766132
108	0xbdf4fb20	-0.11961961
109	0xbec9ad2c	-0.39389932
110	0x3c72dc56	0.01482304
111	0xbf009525	-0.50227576
112	0xbe31f0ab	-0.17376964
113	0xbf2ae05f	-0.66748613
114	0x3e858bf7	0.26083347
115	0xbf004834	-0.50110173
116	0xbeac9672	-0.3370853
117	0xbee7e625	-0.45292774
118	0x3e3a4ae5	0.18192632
119	0xbe9447e7	-0.28961107
120	0xbebb20be	-0.36548418
121	0x3e63841d	0.22218366
122	0xbe765cc2	-0.24058822
123	0xbf2a0b12	-0.6642314
124	0xbf19caec	-0.6007526
125	0x3d015afc	0.03158091
126	0xbd37e0a3	-0.044891965
127	0xbf460497	-0.77350754
128	0xbf0b74f5	-0.5447534
129	0x3e224846	0.15847883
130	0x3ebdb87c	0.37054813
131	0x3d1dde88	0.0385423
132	0x3e785a06	0.24253091
133	0xbbfb61b5	-0.0076715597
134	0xbe836711	-0.2566457
135	0xbf039916	-0.51405466
136	0xbecd881e	-0.40142912
137	0xbddc5012	-0.1075746
138	0xbda17286	-0.07883172
139	0xbe994357	-0.2993419
140	0xbe4244ed	-0.18971606
141	0xbd1d13cb	-0.038348954
142	0xbe92b309	-0.28652218
143	0xbe337197	-0.175238
144	0x3e127b40	0.14304829
145	0xbf4164a2	-0.7554418
146	0xbe276141	-0.16345693
147	0xbe76898a	-0.24075904
148	0xbf361799	-0.7112976
149	0xbdbaf46f	-0.09128653
150	0xbe107e3b	-0.14110653
151	0xbc332609	-0.010934361
152	0x3c6de202	0.0145192165
153	0xbf962e5c	-1.1732898
154	0xbe3368fb	-0.17520516
155	0xbe91614d	-0.28394547
156	0xbebbeb42	-0.36702925
157	0x3d1d68cb	0.038430016
158	0xbefd9791	-0.49529698
159	0x3f681fa7	0.906733
160	0x3ef9508d	0.48694268
161	0xbda2f964	-0.07957724
162	0x3d2e0d2a	0.042493023
163	0x3e8686cc	0.26274717
164	0xbf2c9ec4	-0.6742976
165	0xbe16ce69	-0.14727177
166	0xbf0cffca	-0.55077803
167	0xbe4c7be4	-0.19969136
168	0x3ef4dac5	0.47823158
169	0x3d701a32	0.05861873
170	0xbe03e9d4	-0.12882167
171	0x3f1b881b	0.60754555
172	0xbc9f28e6	-0.019428682
173	0xbf8f735e	-1.1207082
174	0x3ef18759	0.47173575
175	0xbe9ba3f1	-0.30398515
176	0xbe8ba48e	-0.27273983
177	0xbe0f8099	-0.140139
178	0x3f0b7b1d	0.5448473
179	0xbe3a4147	-0.18188964
180	0xbdab8701	-0.08375359
181	0xbf0c4f83	-0.54808825
182	0xbf4f9061	-0.8107968
183	0x3efdddcd	0.49583283
184	0xbd948067	-0.07251053
185	0xbf3954b3	-0.72394866
186	0xbe116b6b	-0.14201133
187	0xbf346d43	-0.7047922
188	0xbf77785c	-0.9666803
189	0xbf40fa6e	-0.75382125
190	0x3d765de8	0.06014815
191	0xbf4e5ef7	-0.80613655
192	0x3ceab23f	0.028649447
193	0x3d2476e7	0.040152457
194	0xbd46c725	-0.048529763
195	0x3edcc8a7	0.43121836
196	0x3f458bf4	0.77166677
197	0xbda75bdb	-0.08171817
198	0x3ec53863	0.38519582
199	0xbf3cecf1	-0.73799044
200	0xbe2169fe	-0.15763089
201	0x3ef5e885	0.4802896
202	0xbd1dfe41	-0.038572554
203	0xbe9e91b7	-0.30970547
204	0xbdb6ca0b	-0.089252554
205	0x3f349a5c	0.70548034
206	0xbf0da89b	-0.55335397
207	0xbb539265	-0.0032283303
208	0x3ebed69b	0.37273106
209	0xbf8ae3ab	-1.0850729
210	0xbe73e64b	-0.23818319
211	0xbc8487c4	-0.01617802
212	0xbe06b65a	-0.13155499
213	0xbe5a0d9d	-0.21294256
214	0xbf0ef14e	-0.5583695
215	0xbee8aece	-0.45445865
216	0xbf19afce	-0.6003388
217	0x3b97e132	0.0046349997
218	0xbebb4a33	-0.36580047
219	0x3e589a9b	0.21152727
220	0x3f70e61a	0.9410111
221	0x3db86166	0.09002952
222	0x3f266d3f	0.65010446
223	0xbe8ff114	-0.28113616
224	0xbe03a67f	-0.12856482
225	0xbf1ce3ca	-0.6128508
226	0x3d604316	0.054751478
227	0xbe65929a	-0.22419205
228	0xbce7c4b7	-0.028292043
229	0x3f8f4ce3	1.1195339
230	0xbd6e04b6	-0.05810996
231	0xbe4ee7ac	-0.20205563
232	0xbe9a400b	-0.30126986
233	0x3ce3c700	0.027804852
234	0xbeae0530	-0.33988333
235	0xbe71b1fa	-0.23603049
236	0xbec09256	-0.37611645
237	0xbf83cfa9	-1.0297748
238	0xbdab2647	-0.0835691
239	0x3f40c739	0.7530399
240	0xbd4e6071	-0.050384942
241	0x3dbcbda6	0.0921586
242	0xbef65108	-0.48108697
243	0xbd114e0a	-0.035474814
244	0xbec7c040	-0.39013863
245	0xbebd9a04	-0.37031567
246	0x3e1c37a9	0.15255608
247	0xbe01b508	-0.12666714
248	0x3e074f1f	0.13213776
249	0xbe0f139e	-0.13972327
250	0xbcb8b78a	-0.022548456
251	0x3ebac261	0.36476424
252	0xbeb89dc0	-0.36057854
253	0x3d7aae3b	0.061201315
254	0xbe6cc37f	-0.23121451
255	0x3e199336	0.14997563

layer2.weight f4 [1, 256]
0	0x407a5176	3.911222
1	0x3ba281ff	0.0049593444
2	0xbe257e37	-0.16161428
3	0xbf47e420	-0.78082466
4	0x3effa973	0.49933967
5	0x3ef25c5a	0.47336084
6	0xbf884695	-1.064654
7	0xbffb599e	-1.9636724
8	0xbbd25c12	-0.006419667
9	0xb99234ab	-0.0002788653
10	0x3f86ff64	1.0546689
11	0xbf676462	-0.90387547
12	0x3fab0b73	1.3362869
13	0xc0044202	-2.0665288
14	0x3f026133	0.50929564
15	0x3fb6d3f1	1.4283429
16	0xbdcd6899	-0.10029716
17	0xbefed240	-0.49769783
18	0x3f65cfe2	0.8977033
19	0xbebcf8e1	-0.3690863
20	0xbe790a62	-0.24320367
21	0xbff9e04c	-1.9521575
22	0xbfd8d18c	-1.6938949
23	0x3e81442f	0.25247332
24	0x3ec0bf29	0.37645844
25	0xbefe820f	-0.49708602
26	0xbf3b68fa	-0.73207057
27	0x400f9b64	2.2438593
28	0xbfb6c9e0	-1.4280357
29	0x3fa1e470	1.2647839
30	0xbccc2634	-0.02492056
31	0xbe94db38	-0.290735
32	0x3e0f730e	0.14008734
33	0xbedd0f03	-0.43175516
34	0x3f821a89	1.0164348
35	0xbe95d5f8	-0.29264808
36	0x3e9b6df0	0.30357313
37	0xbc875f8a	-0.016525049
38	0x3f12a979	0.57289845
39	0xbfc63e19	-1.5487701
40	0xbc976601	-0.018481256
41	0xbfc48026	-1.5351608
42	0x3d606558	0.05478415
43	0xbf750c9b	-0.9572236
44	0xbc889c25	-0.016676018
45	0x3f098b4e	0.5372819
46	0x3faf3918	1.3689299
47	0xbffe20c3	-1.9853748
48	0xbf76eb1a	-0.96452487
49	0x3ec1a2d3	0.37819538
50	0xbf66fa07	-0.9022526
51	0xbfcad8bc	-1.5847392
52	0xbf91bed9	-1.1386367
53	0x3eeb08dc	0.45905197
54	0x3f98e16f	1.1943797
55	0xc05865d3	-3.3812149
56	0x3fc34e43	1.5258259
57	0x3f4a613f	0.79054636
58	0xbf13e243	-0.57767123
59	0xbf000cb6	-0.50019395
60	0x3cb4252b	0.02199038
61	0x3e731fdb	0.2374262
62	0x3f7fd73f	0.99937814
63	0x3cc31d8a	0.023817796
64	0x3f2b12f4	0.66825795
65	0xc02f18dc	-2.7358923
66	0xbee88d3d	-0.45420256
67	0xbc9c7b55	-0.019101778
68	0x3bf06e72	0.007337385
69	0x3be31f74	0.0069312397
70	0x3f2b6e27	0.66964954
71	0x3f9720d0	1.1806889
72	0xbf71e712	-0.9449321
73	0xbf3338aa	-0.7000834
74	0xbcd62c10	-0.026144058
75	0xbd01f199	-0.031724546
76	0xbf8eae96	-1.1147029
77	0xbe27da97	-0.16391979
78	0xbe3b4263	-0.18287043
79	0xbc9a5edc	-0.01884406
80	0xbfb4d859	-1.4128524
81	0x3cec2f8c	0.028831266
82	0xbeb6f0b2	-0.3573051
83	0xbf2e020a	-0.6797186
84	0xbf632f55	-0.887441
85	0xbf886f71	-1.0659009
86	0xbf582293	-0.84427756
87	0x3fc72866	1.5559204
88	0xbf9a074e	-1.2033479
89	0xbc19e287	-0.009392387
90	0xbe66d75f	-0.22543095
91	0xbfeb4688	-1.83809
92	0xbedf2a4e	-0.43586963
93	0x3f899998	1.0749998
94	0xbdc63d8a	-0.096797064
95	0xbc75529c	-0.014973309
96	0x3fc7f448	1.5621424
97	0xba8cafc5	-0.0010733536
98	0xbf352056	-0.70752466
99	0x3f54a062	0.83057225
100	0xbefa48eb	-0.48883757
101	0x3f312852	0.6920215
102	0x3f8e921c	1.1138339
103	0x3f807ad9	1.003749
104	0x400e2480	2.2209778
105	0x3ff371cb	1.9019102
106	0x3ed102ae	0.40822357
107	0x3f4c50a5	0.79810554
108	0xc032c89a	-2.7934937
109	0xbeec527c	-0.4615668
110	0xc00a927b	-2.1651905
111	0xbedd0229	-0.4316571
112	0xbbf6d44b	-0.0075326315
113	0xbf46392c	-0.7743099
114	0x3ff11acc	1.8836303
115	0x3faaef5f	1.33543
116	0xbf686dd4	-0.90792584
117	0xbeaaf080	-0.33386612
118	0x3e5e26f6	0.2169455
119	0xbf072ace	-0.5279969
120	0xbec7a932	-0.38996273
121	0x3f960817	1.1721219
122	0xbf0cd69e	-0.5501498
123	0xbec5de94	-0.38646376
124	0x3ee1d4cf	0.44107673
125	0xc06d6e77	-3.7098672
126	0xbf650b09	-0.89469963
127	0xbfd89c9f	-1.6922797
128	0xbf8f828c	-1.1211715
129	0x3e586623	0.21132712
130	0x3dca6ff5	0.09884635
131	0x3eef767c	0.46770084
132	0x3f5d3029	0.8640161
133	0xc02f272c	-2.7367659
134	0xbe094931	-0.13406827
135	0xbe681b04	-0.22666556
136	0xbecb554b	-0.3971351
137	0xbea54e17	-0.3228614
138	0x3c4e8b02	0.012606384
139	0x3fa35da7	1.2762955
140	0x3f5f1bed	0.87151986
141	0x3f0c8d4e	0.54903114
142	0xbe96e356	-0.2947032
143	0xbe9a2d0c	-0.30112493
144	0xbec41fad	-0.38305417
145	0xbfdb3a62	-1.7127192
146	0xbd8fc508	-0.070200026
147	0x3fe4a0e7	1.7861603
148	0xbf13722c	-0.5759609
149	0xbbf59b1b	-0.0074952967
150	0x3b8a5784	0.0042218585
151	0xbff19743	-1.8874286
152	0x3b0d18da	0.0021529705
153	0xbfda2547	-1.7042626
154	0xbcad7f42	-0.021178845
155	0xbe55aad6	-0.2086595
156	0xbf8e8314	-1.1133752
157	0xbeaba4ca	-0.33524162
158	0xc0387c88	-2.8826008
159	0x3f3c809f	0.7363376
160	0x3efdc874	0.49566996
161	0x3e84ff0c	0.25975835
162	0x3f92df80	1.1474457
163	0x3fae7e05	1.3632208
164	0x40154a2f	2.3326528
165	0x403cf85f	2.9526594
166	0x3e7ed821	0.24887134
167	0xbcfabb7a	-0.030606974
168	0x3efe3518	0.49649882
169	0x3f158038	0.5839877
170	0x3fd6c42a	1.6778615
171	0x3f78b24f	0.9714708
172	0x3ef64a15	0.48103395
173	0xbfba4847	-1.4553307
174	0xbe74705e	-0.2387099
175	0x3f92a094	1.1455255
176	0x3f2daf94	0.67846036
177	0xbfca3b38	-1.5799322
178	0xbf087abb	-0.5331227
179	0xbcba6ab7	-0.022755964
180	0x3bc71c3d	0.0060763643
181	0xbede9378	-0.43471885
182	0x3f513b35	0.8173097
183	0x3eae35ac	0.34025323
184	0xbca3bc66	-0.019987296
185	0xbeb4442d	-0.35208264
186	0xbc8f2be8	-0.01747699
187	0x3ffd6132	1.9795287
188	0xbf9e83a8	-1.2383928
189	0xbf5c68fc	-0.86097693
190	0xbdd88bd2	-0.105735436
191	0xbff51e1e	-1.9149816
192	0xbf09266d	-0.5357426
193	0x3f6bf20b	0.92166203
194	0x3fedae9d	1.8568913
195	0xbf050f7d	-0.5197676
196	0x3f8264cb	1.018701
197	0xbc5603ea	-0.013062457
198	0x3fe34a94	1.7757134
199	0xc023af53	-2.557576
200	0x3bc23d3b	0.0059277094
201	0x3f174b7f	0.5909957
202	0xbe6d038d	-0.23145886
203	0xc04e6c9e	-3.2253795
204	0xbd4903b7	-0.04907581
205	0x3f5a2e8e	0.85227287
206	0xbf5d750d	-0.8650673
207	0x3f7d3a5a	0.9891716
208	0x3da53fc0	0.080688
209	0xbf80d534	-1.0065064
210	0xbf0f58bf	-0.5599479
211	0xbe481bf6	-0.19541916
212	0xbcd99590	-0.026560575
213	0x3fb736ce	1.43136
214	0xbf378810	-0.7169199
215	0xc0063001	-2.09668
216	0x3fb61e98	1.4228086
217	0xc0306cb0	-2.7566338
218	0xbfdb7070	-1.7143688
219	0xbf22bc68	-0.63568735
220	0x3f9f2fd2	1.2436469
221	0xbf83f730	-1.0309811
222	0x3edb8f21	0.42882636
223	0xbeb1a118	-0.34693217
224	0xbee238a2	-0.44183832
225	0xbf9a6b8f	-1.2064074
226	0x3ef12250	0.4709649
227	0x3cad832e	0.021180715
228	0xbebb2a05	-0.36555496
229	0xbffb98ae	-1.9655969
230	0x3dfbac14	0.12288681
231	0x3e813eff	0.25243375
232	0x400e8609	2.2269309
233	0x3f186149	0.59523445
234	0xbf3ba53b	-0.73298997
235	0x3cb16573	0.02165482
236	0xbc9e7412	-0.019342456
237	0x3f640da8	0.8908334
238	0xbf1958bf	-0.5990104
239	0x3f1c7ac6	0.6112484
240	0xbf9e90d8	-1.2387953
241	0x3ec334b9	0.38126162
242	0xbff6d0f2	-1.9282515
243	0xbea2fa1f	-0.31831452
244	0xbfce2c8c	-1.6107345
245	0xbe20fc4c	-0.15721244
246	0x3fb36d94	1.4017816
247	0x4004b9ad	2.0738328
248	0xbf6804ba	-0.9063221
249	0x3ff7f146	1.9370506
250	0xbc70a7ab	-0.014688413
251	0x3ef56ba9	0.479337
252	0xbedb3bc9	-0.4281905
253	0xbe950ec6	-0.29112834
254	0xc0186750	-2.3813057
255	0xbd2cdf4f	-0.04220515
